…
I0114 23:30:31.836985 86027 net.cpp:296] The NetState phase (0) differed from the phase (1) specified by a rule in layer data
I0114 23:30:31.837025 86027 net.cpp:296] The NetState phase (0) differed from the phase (1) specified by a rule in layer accuracy
I0114 23:30:31.837692 86027 net.cpp:53] Initializing net from parameters: 
name: "Food-ResNet-10-CVGJ"
state {
  phase: TRAIN
  level: 0
  stage: ""
}
layer {
  name: "data"
  type: "Data"
  top: "data"
  top: "label"
  include {
    phase: TRAIN
  }
  transform_param {
    mirror: false
  }
  data_param {
    source: "train_lmdb"
    batch_size: 14
    backend: LMDB
  }
}
layer {
  name: "data_bn"
  type: "BatchNorm"
  bottom: "data"
  top: "data_bn"
  param {
    lr_mult: 0
    decay_mult: 0
  }
  param {
    lr_mult: 0
    decay_mult: 0
  }
  param {
    lr_mult: 0
    decay_mult: 0
  }
}
layer {
  name: "data_scale"
  type: "Scale"
  bottom: "data_bn"
  top: "data_bn"
  param {
    lr_mult: 1
    decay_mult: 1
  }
  param {
    lr_mult: 2
    decay_mult: 1
  }
  scale_param {
    bias_term: true
  }
}
layer {
  name: "conv1"
  type: "Convolution"
  bottom: "data_bn"
  top: "conv1"
  param {
    lr_mult: 1
    decay_mult: 1
  }
  param {
    lr_mult: 2
    decay_mult: 1
  }
  convolution_param {
    num_output: 64
    pad: 3
    kernel_size: 7
    stride: 2
    weight_filler {
      type: "msra"
      variance_norm: FAN_OUT
    }
    bias_filler {
      type: "constant"
      value: 0
    }
  }
}
layer {
  name: "conv1_bn"
  type: "BatchNorm"
  bottom: "conv1"
  top: "conv1"
  param {
    lr_mult: 0
    decay_mult: 0
  }
  param {
    lr_mult: 0
    decay_mult: 0
  }
  param {
    lr_mult: 0
    decay_mult: 0
  }
}
layer {
  name: "conv1_scale"
  type: "Scale"
  bottom: "conv1"
  top: "conv1"
  param {
    lr_mult: 1
    decay_mult: 1
  }
  param {
    lr_mult: 2
    decay_mult: 1
  }
  scale_param {
    bias_term: true
  }
}
layer {
  name: "conv1_relu"
  type: "ReLU"
  bottom: "conv1"
  top: "conv1"
}
layer {
  name: "conv1_pool"
  type: "Pooling"
  bottom: "conv1"
  top: "conv1_pool"
  pooling_param {
    kernel_size: 3
    stride: 2
  }
}
layer {
  name: "layer_64_1_conv1"
  type: "Convolution"
  bottom: "conv1_pool"
  top: "layer_64_1_conv1"
  param {
    lr_mult: 1
    decay_mult: 1
  }
  convolution_param {
    num_output: 64
    bias_term: false
    pad: 1
    kernel_size: 3
    stride: 1
    weight_filler {
      type: "msra"
    }
    bias_filler {
      type: "constant"
      value: 0
    }
  }
}
layer {
  name: "layer_64_1_bn2"
  type: "BatchNorm"
  bottom: "layer_64_1_conv1"
  top: "layer_64_1_conv1"
  param {
    lr_mult: 0
    decay_mult: 0
  }
  param {
    lr_mult: 0
    decay_mult: 0
  }
  param {
    lr_mult: 0
    decay_mult: 0
  }
}
layer {
  name: "layer_64_1_scale2"
  type: "Scale"
  bottom: "layer_64_1_conv1"
  top: "layer_64_1_conv1"
  param {
    lr_mult: 1
    decay_mult: 1
  }
  param {
    lr_mult: 2
    decay_mult: 1
  }
  scale_param {
    bias_term: true
  }
}
layer {
  name: "layer_64_1_relu2"
  type: "ReLU"
  bottom: "layer_64_1_conv1"
  top: "layer_64_1_conv1"
}
layer {
  name: "layer_64_1_conv2"
  type: "Convolution"
  bottom: "layer_64_1_conv1"
  top: "layer_64_1_conv2"
  param {
    lr_mult: 1
    decay_mult: 1
  }
  convolution_param {
    num_output: 64
    bias_term: false
    pad: 1
    kernel_size: 3
    stride: 1
    weight_filler {
      type: "msra"
    }
    bias_filler {
      type: "constant"
      value: 0
    }
  }
}
layer {
  name: "layer_64_1_sum"
  type: "Eltwise"
  bottom: "layer_64_1_conv2"
  bottom: "conv1_pool"
  top: "layer_64_1_sum"
}
layer {
  name: "layer_128_1_bn1"
  type: "BatchNorm"
  bottom: "layer_64_1_sum"
  top: "layer_128_1_bn1"
  param {
    lr_mult: 0
    decay_mult: 0
  }
  param {
    lr_mult: 0
    decay_mult: 0
  }
  param {
    lr_mult: 0
    decay_mult: 0
  }
}
layer {
  name: "layer_128_1_scale1"
  type: "Scale"
  bottom: "layer_128_1_bn1"
  top: "layer_128_1_bn1"
  param {
    lr_mult: 1
    decay_mult: 1
  }
  param {
    lr_mult: 2
    decay_mult: 1
  }
  scale_param {
    bias_term: true
  }
}
layer {
  name: "layer_128_1_relu1"
  type: "ReLU"
  bottom: "layer_128_1_bn1"
  top: "layer_128_1_bn1"
}
layer {
  name: "layer_128_1_conv1"
  type: "Convolution"
  bottom: "layer_128_1_bn1"
  top: "layer_128_1_conv1"
  param {
    lr_mult: 1
    decay_mult: 1
  }
  convolution_param {
    num_output: 128
    bias_term: false
    pad: 1
    kernel_size: 3
    stride: 2
    weight_filler {
      type: "msra"
    }
    bias_filler {
      type: "constant"
      value: 0
    }
  }
}
layer {
  name: "layer_128_1_bn2"
  type: "BatchNorm"
  bottom: "layer_128_1_conv1"
  top: "layer_128_1_conv1"
  param {
    lr_mult: 0
    decay_mult: 0
  }
  param {
    lr_mult: 0
    decay_mult: 0
  }
  param {
    lr_mult: 0
    decay_mult: 0
  }
}
layer {
  name: "layer_128_1_scale2"
  type: "Scale"
  bottom: "layer_128_1_conv1"
  top: "layer_128_1_conv1"
  param {
    lr_mult: 1
    decay_mult: 1
  }
  param {
    lr_mult: 2
    decay_mult: 1
  }
  scale_param {
    bias_term: true
  }
}
layer {
  name: "layer_128_1_relu2"
  type: "ReLU"
  bottom: "layer_128_1_conv1"
  top: "layer_128_1_conv1"
}
layer {
  name: "layer_128_1_conv2"
  type: "Convolution"
  bottom: "layer_128_1_conv1"
  top: "layer_128_1_conv2"
  param {
    lr_mult: 1
    decay_mult: 1
  }
  convolution_param {
    num_output: 128
    bias_term: false
    pad: 1
    kernel_size: 3
    stride: 1
    weight_filler {
      type: "msra"
    }
    bias_filler {
      type: "constant"
      value: 0
    }
  }
}
layer {
  name: "layer_128_1_conv_expand"
  type: "Convolution"
  bottom: "layer_128_1_bn1"
  top: "layer_128_1_conv_expand"
  param {
    lr_mult: 1
    decay_mult: 1
  }
  convolution_param {
    num_output: 128
    bias_term: false
    pad: 0
    kernel_size: 1
    stride: 2
    weight_filler {
      type: "msra"
    }
    bias_filler {
      type: "constant"
      value: 0
    }
  }
}
layer {
  name: "layer_128_1_sum"
  type: "Eltwise"
  bottom: "layer_128_1_conv2"
  bottom: "layer_128_1_conv_expand"
  top: "layer_128_1_sum"
}
layer {
  name: "layer_256_1_bn1"
  type: "BatchNorm"
  bottom: "layer_128_1_sum"
  top: "layer_256_1_bn1"
  param {
    lr_mult: 0
    decay_mult: 0
  }
  param {
    lr_mult: 0
    decay_mult: 0
  }
  param {
    lr_mult: 0
    decay_mult: 0
  }
}
layer {
  name: "layer_256_1_scale1"
  type: "Scale"
  bottom: "layer_256_1_bn1"
  top: "layer_256_1_bn1"
  param {
    lr_mult: 1
    decay_mult: 1
  }
  param {
    lr_mult: 2
    decay_mult: 1
  }
  scale_param {
    bias_term: true
  }
}
layer {
  name: "layer_256_1_relu1"
  type: "ReLU"
  bottom: "layer_256_1_bn1"
  top: "layer_256_1_bn1"
}
layer {
  name: "layer_256_1_conv1"
  type: "Convolution"
  bottom: "layer_256_1_bn1"
  top: "layer_256_1_conv1"
  param {
    lr_mult: 1
    decay_mult: 1
  }
  convolution_param {
    num_output: 256
    bias_term: false
    pad: 1
    kernel_size: 3
    stride: 2
    weight_filler {
      type: "msra"
    }
    bias_filler {
      type: "constant"
      value: 0
    }
  }
}
layer {
  name: "layer_256_1_bn2"
  type: "BatchNorm"
  bottom: "layer_256_1_conv1"
  top: "layer_256_1_conv1"
  param {
    lr_mult: 0
    decay_mult: 0
  }
  param {
    lr_mult: 0
    decay_mult: 0
  }
  param {
    lr_mult: 0
    decay_mult: 0
  }
}
layer {
  name: "layer_256_1_scale2"
  type: "Scale"
  bottom: "layer_256_1_conv1"
  top: "layer_256_1_conv1"
  param {
    lr_mult: 1
    decay_mult: 1
  }
  param {
    lr_mult: 2
    decay_mult: 1
  }
  scale_param {
    bias_term: true
  }
}
layer {
  name: "layer_256_1_relu2"
  type: "ReLU"
  bottom: "layer_256_1_conv1"
  top: "layer_256_1_conv1"
}
layer {
  name: "layer_256_1_conv2"
  type: "Convolution"
  bottom: "layer_256_1_conv1"
  top: "layer_256_1_conv2"
  param {
    lr_mult: 1
    decay_mult: 1
  }
  convolution_param {
    num_output: 256
    bias_term: false
    pad: 1
    kernel_size: 3
    stride: 1
    weight_filler {
      type: "msra"
    }
    bias_filler {
      type: "constant"
      value: 0
    }
  }
}
layer {
  name: "layer_256_1_conv_expand"
  type: "Convolution"
  bottom: "layer_256_1_bn1"
  top: "layer_256_1_conv_expand"
  param {
    lr_mult: 1
    decay_mult: 1
  }
  convolution_param {
    num_output: 256
    bias_term: false
    pad: 0
    kernel_size: 1
    stride: 2
    weight_filler {
      type: "msra"
    }
    bias_filler {
      type: "constant"
      value: 0
    }
  }
}
layer {
  name: "layer_256_1_sum"
  type: "Eltwise"
  bottom: "layer_256_1_conv2"
  bottom: "layer_256_1_conv_expand"
  top: "layer_256_1_sum"
}
layer {
  name: "layer_512_1_bn1"
  type: "BatchNorm"
  bottom: "layer_256_1_sum"
  top: "layer_512_1_bn1"
  param {
    lr_mult: 0
    decay_mult: 0
  }
  param {
    lr_mult: 0
    decay_mult: 0
  }
  param {
    lr_mult: 0
    decay_mult: 0
  }
}
layer {
  name: "layer_512_1_scale1"
  type: "Scale"
  bottom: "layer_512_1_bn1"
  top: "layer_512_1_bn1"
  param {
    lr_mult: 1
    decay_mult: 1
  }
  param {
    lr_mult: 2
    decay_mult: 1
  }
  scale_param {
    bias_term: true
  }
}
layer {
  name: "layer_512_1_relu1"
  type: "ReLU"
  bottom: "layer_512_1_bn1"
  top: "layer_512_1_bn1"
}
layer {
  name: "layer_512_1_conv1"
  type: "Convolution"
  bottom: "layer_512_1_bn1"
  top: "layer_512_1_conv1"
  param {
    lr_mult: 1
    decay_mult: 1
  }
  convolution_param {
    num_output: 512
    bias_term: false
    pad: 1
    kernel_size: 3
    stride: 2
    weight_filler {
      type: "msra"
    }
    bias_filler {
      type: "constant"
      value: 0
    }
  }
}
layer {
  name: "layer_512_1_bn2"
  type: "BatchNorm"
  bottom: "layer_512_1_conv1"
  top: "layer_512_1_conv1"
  param {
    lr_mult: 0
    decay_mult: 0
  }
  param {
    lr_mult: 0
    decay_mult: 0
  }
  param {
    lr_mult: 0
    decay_mult: 0
  }
}
layer {
  name: "layer_512_1_scale2"
  type: "Scale"
  bottom: "layer_512_1_conv1"
  top: "layer_512_1_conv1"
  param {
    lr_mult: 1
    decay_mult: 1
  }
  param {
    lr_mult: 2
    decay_mult: 1
  }
  scale_param {
    bias_term: true
  }
}
layer {
  name: "layer_512_1_relu2"
  type: "ReLU"
  bottom: "layer_512_1_conv1"
  top: "layer_512_1_conv1"
}
layer {
  name: "layer_512_1_conv2"
  type: "Convolution"
  bottom: "layer_512_1_conv1"
  top: "layer_512_1_conv2"
  param {
    lr_mult: 1
    decay_mult: 1
  }
  convolution_param {
    num_output: 512
    bias_term: false
    pad: 1
    kernel_size: 3
    stride: 1
    weight_filler {
      type: "msra"
    }
    bias_filler {
      type: "constant"
      value: 0
    }
  }
}
layer {
  name: "layer_512_1_conv_expand"
  type: "Convolution"
  bottom: "layer_512_1_bn1"
  top: "layer_512_1_conv_expand"
  param {
    lr_mult: 1
    decay_mult: 1
  }
  convolution_param {
    num_output: 512
    bias_term: false
    pad: 0
    kernel_size: 1
    stride: 2
    weight_filler {
      type: "msra"
    }
    bias_filler {
      type: "constant"
      value: 0
    }
  }
}
layer {
  name: "layer_512_1_sum"
  type: "Eltwise"
  bottom: "layer_512_1_conv2"
  bottom: "layer_512_1_conv_expand"
  top: "layer_512_1_sum"
}
layer {
  name: "last_bn"
  type: "BatchNorm"
  bottom: "layer_512_1_sum"
  top: "layer_512_1_sum"
  param {
    lr_mult: 0
    decay_mult: 0
  }
  param {
    lr_mult: 0
    decay_mult: 0
  }
  param {
    lr_mult: 0
    decay_mult: 0
  }
}
layer {
  name: "last_scale"
  type: "Scale"
  bottom: "layer_512_1_sum"
  top: "layer_512_1_sum"
  param {
    lr_mult: 1
    decay_mult: 1
  }
  param {
    lr_mult: 2
    decay_mult: 1
  }
  scale_param {
    bias_term: true
  }
}
layer {
  name: "last_relu"
  type: "ReLU"
  bottom: "layer_512_1_sum"
  top: "layer_512_1_sum"
}
layer {
  name: "global_pool"
  type: "Pooling"
  bottom: "layer_512_1_sum"
  top: "global_pool"
  pooling_param {
    pool: AVE
    global_pooling: true
  }
}
layer {
  name: "global_pool_drop"
  type: "Dropout"
  bottom: "global_pool"
  top: "global_pool"
  dropout_param {
    dropout_ratio: 0.382
  }
}
layer {
  name: "fc_food"
  type: "InnerProduct"
  bottom: "global_pool"
  top: "fc_food"
  param {
    lr_mult: 1
    decay_mult: 1
  }
  param {
    lr_mult: 2
    decay_mult: 1
  }
  inner_product_param {
    num_output: 7
  }
}
layer {
  name: "loss"
  type: "SoftmaxWithLoss"
  bottom: "fc_food"
  bottom: "label"
  top: "loss"
}
I0114 23:30:31.838634 86027 layer_factory.hpp:77] Creating layer data
I0114 23:30:32.020020 86027 db_lmdb.cpp:35] Opened lmdb train_lmdb
I0114 23:30:32.021474 86027 net.cpp:86] Creating Layer data
I0114 23:30:32.021543 86027 net.cpp:382] data -> data
I0114 23:30:32.021591 86027 net.cpp:382] data -> label
I0114 23:30:32.022876 86027 data_layer.cpp:45] output data size: 14,3,224,224
I0114 23:30:32.023171 86027 net.cpp:124] Setting up data
I0114 23:30:32.023213 86027 net.cpp:131] Top shape: 14 3 224 224 (2107392)
I0114 23:30:32.023218 86027 net.cpp:131] Top shape: 14 (14)
I0114 23:30:32.023221 86027 net.cpp:139] Memory required for data: 8429624
I0114 23:30:32.023245 86027 layer_factory.hpp:77] Creating layer data_bn
I0114 23:30:32.023300 86027 net.cpp:86] Creating Layer data_bn
I0114 23:30:32.023336 86027 net.cpp:408] data_bn <- data
I0114 23:30:32.023363 86027 net.cpp:382] data_bn -> data_bn
I0114 23:30:32.023494 86027 net.cpp:124] Setting up data_bn
I0114 23:30:32.023528 86027 net.cpp:131] Top shape: 14 3 224 224 (2107392)
I0114 23:30:32.023532 86027 net.cpp:139] Memory required for data: 16859192
I0114 23:30:32.023567 86027 layer_factory.hpp:77] Creating layer data_scale
I0114 23:30:32.023895 86027 net.cpp:86] Creating Layer data_scale
I0114 23:30:32.023916 86027 net.cpp:408] data_scale <- data_bn
I0114 23:30:32.023924 86027 net.cpp:369] data_scale -> data_bn (in-place)
I0114 23:30:32.023942 86027 layer_factory.hpp:77] Creating layer data_scale
I0114 23:30:32.024324 86027 net.cpp:124] Setting up data_scale
I0114 23:30:32.024358 86027 net.cpp:131] Top shape: 14 3 224 224 (2107392)
I0114 23:30:32.024363 86027 net.cpp:139] Memory required for data: 25288760
I0114 23:30:32.024379 86027 layer_factory.hpp:77] Creating layer conv1
I0114 23:30:32.024415 86027 net.cpp:86] Creating Layer conv1
I0114 23:30:32.024444 86027 net.cpp:408] conv1 <- data_bn
I0114 23:30:32.024461 86027 net.cpp:382] conv1 -> conv1
I0114 23:30:32.024883 86027 net.cpp:124] Setting up conv1
I0114 23:30:32.024937 86027 net.cpp:131] Top shape: 14 64 112 112 (11239424)
I0114 23:30:32.024962 86027 net.cpp:139] Memory required for data: 70246456
I0114 23:30:32.025004 86027 layer_factory.hpp:77] Creating layer conv1_bn
I0114 23:30:32.025331 86027 net.cpp:86] Creating Layer conv1_bn
I0114 23:30:32.025337 86027 net.cpp:408] conv1_bn <- conv1
I0114 23:30:32.025346 86027 net.cpp:369] conv1_bn -> conv1 (in-place)
I0114 23:30:32.025398 86027 net.cpp:124] Setting up conv1_bn
I0114 23:30:32.025416 86027 net.cpp:131] Top shape: 14 64 112 112 (11239424)
I0114 23:30:32.025420 86027 net.cpp:139] Memory required for data: 115204152
I0114 23:30:32.025430 86027 layer_factory.hpp:77] Creating layer conv1_scale
I0114 23:30:32.025449 86027 net.cpp:86] Creating Layer conv1_scale
I0114 23:30:32.025451 86027 net.cpp:408] conv1_scale <- conv1
I0114 23:30:32.025455 86027 net.cpp:369] conv1_scale -> conv1 (in-place)
I0114 23:30:32.025485 86027 layer_factory.hpp:77] Creating layer conv1_scale
I0114 23:30:32.025602 86027 net.cpp:124] Setting up conv1_scale
I0114 23:30:32.025665 86027 net.cpp:131] Top shape: 14 64 112 112 (11239424)
I0114 23:30:32.025686 86027 net.cpp:139] Memory required for data: 160161848
I0114 23:30:32.025985 86027 layer_factory.hpp:77] Creating layer conv1_relu
I0114 23:30:32.025993 86027 net.cpp:86] Creating Layer conv1_relu
I0114 23:30:32.026013 86027 net.cpp:408] conv1_relu <- conv1
I0114 23:30:32.026072 86027 net.cpp:369] conv1_relu -> conv1 (in-place)
I0114 23:30:32.026098 86027 net.cpp:124] Setting up conv1_relu
I0114 23:30:32.026131 86027 net.cpp:131] Top shape: 14 64 112 112 (11239424)
I0114 23:30:32.026152 86027 net.cpp:139] Memory required for data: 205119544
I0114 23:30:32.026160 86027 layer_factory.hpp:77] Creating layer conv1_pool
I0114 23:30:32.026180 86027 net.cpp:86] Creating Layer conv1_pool
I0114 23:30:32.026216 86027 net.cpp:408] conv1_pool <- conv1
I0114 23:30:32.026242 86027 net.cpp:382] conv1_pool -> conv1_pool
I0114 23:30:32.026271 86027 net.cpp:124] Setting up conv1_pool
I0114 23:30:32.026281 86027 net.cpp:131] Top shape: 14 64 56 56 (2809856)
I0114 23:30:32.026284 86027 net.cpp:139] Memory required for data: 216358968
I0114 23:30:32.026286 86027 layer_factory.hpp:77] Creating layer conv1_pool_conv1_pool_0_split
I0114 23:30:32.026520 86027 net.cpp:86] Creating Layer conv1_pool_conv1_pool_0_split
I0114 23:30:32.026540 86027 net.cpp:408] conv1_pool_conv1_pool_0_split <- conv1_pool
I0114 23:30:32.026574 86027 net.cpp:382] conv1_pool_conv1_pool_0_split -> conv1_pool_conv1_pool_0_split_0
I0114 23:30:32.026607 86027 net.cpp:382] conv1_pool_conv1_pool_0_split -> conv1_pool_conv1_pool_0_split_1
I0114 23:30:32.026659 86027 net.cpp:124] Setting up conv1_pool_conv1_pool_0_split
I0114 23:30:32.026684 86027 net.cpp:131] Top shape: 14 64 56 56 (2809856)
I0114 23:30:32.026712 86027 net.cpp:131] Top shape: 14 64 56 56 (2809856)
I0114 23:30:32.026734 86027 net.cpp:139] Memory required for data: 238837816
I0114 23:30:32.026782 86027 layer_factory.hpp:77] Creating layer layer_64_1_conv1
I0114 23:30:32.026803 86027 net.cpp:86] Creating Layer layer_64_1_conv1
I0114 23:30:32.026820 86027 net.cpp:408] layer_64_1_conv1 <- conv1_pool_conv1_pool_0_split_0
I0114 23:30:32.026839 86027 net.cpp:382] layer_64_1_conv1 -> layer_64_1_conv1
I0114 23:30:32.027884 86027 net.cpp:124] Setting up layer_64_1_conv1
I0114 23:30:32.027925 86027 net.cpp:131] Top shape: 14 64 56 56 (2809856)
I0114 23:30:32.027928 86027 net.cpp:139] Memory required for data: 250077240
I0114 23:30:32.027948 86027 layer_factory.hpp:77] Creating layer layer_64_1_bn2
I0114 23:30:32.027953 86027 net.cpp:86] Creating Layer layer_64_1_bn2
I0114 23:30:32.027956 86027 net.cpp:408] layer_64_1_bn2 <- layer_64_1_conv1
I0114 23:30:32.027962 86027 net.cpp:369] layer_64_1_bn2 -> layer_64_1_conv1 (in-place)
I0114 23:30:32.028013 86027 net.cpp:124] Setting up layer_64_1_bn2
I0114 23:30:32.028040 86027 net.cpp:131] Top shape: 14 64 56 56 (2809856)
I0114 23:30:32.028059 86027 net.cpp:139] Memory required for data: 261316664
I0114 23:30:32.028084 86027 layer_factory.hpp:77] Creating layer layer_64_1_scale2
I0114 23:30:32.028136 86027 net.cpp:86] Creating Layer layer_64_1_scale2
I0114 23:30:32.028169 86027 net.cpp:408] layer_64_1_scale2 <- layer_64_1_conv1
I0114 23:30:32.028179 86027 net.cpp:369] layer_64_1_scale2 -> layer_64_1_conv1 (in-place)
I0114 23:30:32.028786 86027 layer_factory.hpp:77] Creating layer layer_64_1_scale2
I0114 23:30:32.028842 86027 net.cpp:124] Setting up layer_64_1_scale2
I0114 23:30:32.028862 86027 net.cpp:131] Top shape: 14 64 56 56 (2809856)
I0114 23:30:32.028867 86027 net.cpp:139] Memory required for data: 272556088
I0114 23:30:32.028885 86027 layer_factory.hpp:77] Creating layer layer_64_1_relu2
I0114 23:30:32.028930 86027 net.cpp:86] Creating Layer layer_64_1_relu2
I0114 23:30:32.028945 86027 net.cpp:408] layer_64_1_relu2 <- layer_64_1_conv1
I0114 23:30:32.028952 86027 net.cpp:369] layer_64_1_relu2 -> layer_64_1_conv1 (in-place)
I0114 23:30:32.028959 86027 net.cpp:124] Setting up layer_64_1_relu2
I0114 23:30:32.028980 86027 net.cpp:131] Top shape: 14 64 56 56 (2809856)
I0114 23:30:32.028985 86027 net.cpp:139] Memory required for data: 283795512
I0114 23:30:32.028987 86027 layer_factory.hpp:77] Creating layer layer_64_1_conv2
I0114 23:30:32.028996 86027 net.cpp:86] Creating Layer layer_64_1_conv2
I0114 23:30:32.029741 86027 net.cpp:408] layer_64_1_conv2 <- layer_64_1_conv1
I0114 23:30:32.029769 86027 net.cpp:382] layer_64_1_conv2 -> layer_64_1_conv2
I0114 23:30:32.030365 86027 net.cpp:124] Setting up layer_64_1_conv2
I0114 23:30:32.030390 86027 net.cpp:131] Top shape: 14 64 56 56 (2809856)
I0114 23:30:32.030396 86027 net.cpp:139] Memory required for data: 295034936
I0114 23:30:32.030419 86027 layer_factory.hpp:77] Creating layer layer_64_1_sum
I0114 23:30:32.030457 86027 net.cpp:86] Creating Layer layer_64_1_sum
I0114 23:30:32.030509 86027 net.cpp:408] layer_64_1_sum <- layer_64_1_conv2
I0114 23:30:32.030580 86027 net.cpp:408] layer_64_1_sum <- conv1_pool_conv1_pool_0_split_1
I0114 23:30:32.030638 86027 net.cpp:382] layer_64_1_sum -> layer_64_1_sum
I0114 23:30:32.030743 86027 net.cpp:124] Setting up layer_64_1_sum
I0114 23:30:32.030769 86027 net.cpp:131] Top shape: 14 64 56 56 (2809856)
I0114 23:30:32.030789 86027 net.cpp:139] Memory required for data: 306274360
I0114 23:30:32.031124 86027 layer_factory.hpp:77] Creating layer layer_128_1_bn1
I0114 23:30:32.031183 86027 net.cpp:86] Creating Layer layer_128_1_bn1
I0114 23:30:32.031239 86027 net.cpp:408] layer_128_1_bn1 <- layer_64_1_sum
I0114 23:30:32.031322 86027 net.cpp:382] layer_128_1_bn1 -> layer_128_1_bn1
I0114 23:30:32.031481 86027 net.cpp:124] Setting up layer_128_1_bn1
I0114 23:30:32.031540 86027 net.cpp:131] Top shape: 14 64 56 56 (2809856)
I0114 23:30:32.031590 86027 net.cpp:139] Memory required for data: 317513784
I0114 23:30:32.031646 86027 layer_factory.hpp:77] Creating layer layer_128_1_scale1
I0114 23:30:32.031736 86027 net.cpp:86] Creating Layer layer_128_1_scale1
I0114 23:30:32.031769 86027 net.cpp:408] layer_128_1_scale1 <- layer_128_1_bn1
I0114 23:30:32.031822 86027 net.cpp:369] layer_128_1_scale1 -> layer_128_1_bn1 (in-place)
I0114 23:30:32.031883 86027 layer_factory.hpp:77] Creating layer layer_128_1_scale1
I0114 23:30:32.031997 86027 net.cpp:124] Setting up layer_128_1_scale1
I0114 23:30:32.033020 86027 net.cpp:131] Top shape: 14 64 56 56 (2809856)
I0114 23:30:32.033043 86027 net.cpp:139] Memory required for data: 328753208
I0114 23:30:32.033094 86027 layer_factory.hpp:77] Creating layer layer_128_1_relu1
I0114 23:30:32.033113 86027 net.cpp:86] Creating Layer layer_128_1_relu1
I0114 23:30:32.033133 86027 net.cpp:408] layer_128_1_relu1 <- layer_128_1_bn1
I0114 23:30:32.033145 86027 net.cpp:369] layer_128_1_relu1 -> layer_128_1_bn1 (in-place)
I0114 23:30:32.033156 86027 net.cpp:124] Setting up layer_128_1_relu1
I0114 23:30:32.033165 86027 net.cpp:131] Top shape: 14 64 56 56 (2809856)
I0114 23:30:32.033169 86027 net.cpp:139] Memory required for data: 339992632
I0114 23:30:32.033174 86027 layer_factory.hpp:77] Creating layer layer_128_1_bn1_layer_128_1_relu1_0_split
I0114 23:30:32.033203 86027 net.cpp:86] Creating Layer layer_128_1_bn1_layer_128_1_relu1_0_split
I0114 23:30:32.033212 86027 net.cpp:408] layer_128_1_bn1_layer_128_1_relu1_0_split <- layer_128_1_bn1
I0114 23:30:32.033219 86027 net.cpp:382] layer_128_1_bn1_layer_128_1_relu1_0_split -> layer_128_1_bn1_layer_128_1_relu1_0_split_0
I0114 23:30:32.033489 86027 net.cpp:382] layer_128_1_bn1_layer_128_1_relu1_0_split -> layer_128_1_bn1_layer_128_1_relu1_0_split_1
I0114 23:30:32.033504 86027 net.cpp:124] Setting up layer_128_1_bn1_layer_128_1_relu1_0_split
I0114 23:30:32.033529 86027 net.cpp:131] Top shape: 14 64 56 56 (2809856)
I0114 23:30:32.033538 86027 net.cpp:131] Top shape: 14 64 56 56 (2809856)
I0114 23:30:32.033558 86027 net.cpp:139] Memory required for data: 362471480
I0114 23:30:32.033565 86027 layer_factory.hpp:77] Creating layer layer_128_1_conv1
I0114 23:30:32.033617 86027 net.cpp:86] Creating Layer layer_128_1_conv1
I0114 23:30:32.033629 86027 net.cpp:408] layer_128_1_conv1 <- layer_128_1_bn1_layer_128_1_relu1_0_split_0
I0114 23:30:32.033651 86027 net.cpp:382] layer_128_1_conv1 -> layer_128_1_conv1
I0114 23:30:32.034992 86027 net.cpp:124] Setting up layer_128_1_conv1
I0114 23:30:32.035030 86027 net.cpp:131] Top shape: 14 128 28 28 (1404928)
I0114 23:30:32.035380 86027 net.cpp:139] Memory required for data: 368091192
I0114 23:30:32.035408 86027 layer_factory.hpp:77] Creating layer layer_128_1_bn2
I0114 23:30:32.035434 86027 net.cpp:86] Creating Layer layer_128_1_bn2
I0114 23:30:32.035459 86027 net.cpp:408] layer_128_1_bn2 <- layer_128_1_conv1
I0114 23:30:32.035477 86027 net.cpp:369] layer_128_1_bn2 -> layer_128_1_conv1 (in-place)
I0114 23:30:32.035504 86027 net.cpp:124] Setting up layer_128_1_bn2
I0114 23:30:32.035529 86027 net.cpp:131] Top shape: 14 128 28 28 (1404928)
I0114 23:30:32.035534 86027 net.cpp:139] Memory required for data: 373710904
I0114 23:30:32.035540 86027 layer_factory.hpp:77] Creating layer layer_128_1_scale2
I0114 23:30:32.035560 86027 net.cpp:86] Creating Layer layer_128_1_scale2
I0114 23:30:32.035581 86027 net.cpp:408] layer_128_1_scale2 <- layer_128_1_conv1
I0114 23:30:32.035606 86027 net.cpp:369] layer_128_1_scale2 -> layer_128_1_conv1 (in-place)
I0114 23:30:32.035652 86027 layer_factory.hpp:77] Creating layer layer_128_1_scale2
I0114 23:30:32.036216 86027 net.cpp:124] Setting up layer_128_1_scale2
I0114 23:30:32.036228 86027 net.cpp:131] Top shape: 14 128 28 28 (1404928)
I0114 23:30:32.036250 86027 net.cpp:139] Memory required for data: 379330616
I0114 23:30:32.036259 86027 layer_factory.hpp:77] Creating layer layer_128_1_relu2
I0114 23:30:32.036283 86027 net.cpp:86] Creating Layer layer_128_1_relu2
I0114 23:30:32.036293 86027 net.cpp:408] layer_128_1_relu2 <- layer_128_1_conv1
I0114 23:30:32.036312 86027 net.cpp:369] layer_128_1_relu2 -> layer_128_1_conv1 (in-place)
I0114 23:30:32.036345 86027 net.cpp:124] Setting up layer_128_1_relu2
I0114 23:30:32.036372 86027 net.cpp:131] Top shape: 14 128 28 28 (1404928)
I0114 23:30:32.036377 86027 net.cpp:139] Memory required for data: 384950328
I0114 23:30:32.036419 86027 layer_factory.hpp:77] Creating layer layer_128_1_conv2
I0114 23:30:32.036458 86027 net.cpp:86] Creating Layer layer_128_1_conv2
I0114 23:30:32.036464 86027 net.cpp:408] layer_128_1_conv2 <- layer_128_1_conv1
I0114 23:30:32.036715 86027 net.cpp:382] layer_128_1_conv2 -> layer_128_1_conv2
I0114 23:30:32.038800 86027 net.cpp:124] Setting up layer_128_1_conv2
I0114 23:30:32.038847 86027 net.cpp:131] Top shape: 14 128 28 28 (1404928)
I0114 23:30:32.038867 86027 net.cpp:139] Memory required for data: 390570040
I0114 23:30:32.038892 86027 layer_factory.hpp:77] Creating layer layer_128_1_conv_expand
I0114 23:30:32.038908 86027 net.cpp:86] Creating Layer layer_128_1_conv_expand
I0114 23:30:32.038933 86027 net.cpp:408] layer_128_1_conv_expand <- layer_128_1_bn1_layer_128_1_relu1_0_split_1
I0114 23:30:32.038949 86027 net.cpp:382] layer_128_1_conv_expand -> layer_128_1_conv_expand
I0114 23:30:32.039147 86027 net.cpp:124] Setting up layer_128_1_conv_expand
I0114 23:30:32.039213 86027 net.cpp:131] Top shape: 14 128 28 28 (1404928)
I0114 23:30:32.039242 86027 net.cpp:139] Memory required for data: 396189752
I0114 23:30:32.039261 86027 layer_factory.hpp:77] Creating layer layer_128_1_sum
I0114 23:30:32.039307 86027 net.cpp:86] Creating Layer layer_128_1_sum
I0114 23:30:32.039726 86027 net.cpp:408] layer_128_1_sum <- layer_128_1_conv2
I0114 23:30:32.039734 86027 net.cpp:408] layer_128_1_sum <- layer_128_1_conv_expand
I0114 23:30:32.039739 86027 net.cpp:382] layer_128_1_sum -> layer_128_1_sum
I0114 23:30:32.039774 86027 net.cpp:124] Setting up layer_128_1_sum
I0114 23:30:32.039834 86027 net.cpp:131] Top shape: 14 128 28 28 (1404928)
I0114 23:30:32.039881 86027 net.cpp:139] Memory required for data: 401809464
I0114 23:30:32.039942 86027 layer_factory.hpp:77] Creating layer layer_256_1_bn1
I0114 23:30:32.039989 86027 net.cpp:86] Creating Layer layer_256_1_bn1
I0114 23:30:32.040012 86027 net.cpp:408] layer_256_1_bn1 <- layer_128_1_sum
I0114 23:30:32.040037 86027 net.cpp:382] layer_256_1_bn1 -> layer_256_1_bn1
I0114 23:30:32.040067 86027 net.cpp:124] Setting up layer_256_1_bn1
I0114 23:30:32.040077 86027 net.cpp:131] Top shape: 14 128 28 28 (1404928)
I0114 23:30:32.040082 86027 net.cpp:139] Memory required for data: 407429176
I0114 23:30:32.040470 86027 layer_factory.hpp:77] Creating layer layer_256_1_scale1
I0114 23:30:32.040514 86027 net.cpp:86] Creating Layer layer_256_1_scale1
I0114 23:30:32.040540 86027 net.cpp:408] layer_256_1_scale1 <- layer_256_1_bn1
I0114 23:30:32.040552 86027 net.cpp:369] layer_256_1_scale1 -> layer_256_1_bn1 (in-place)
I0114 23:30:32.040575 86027 layer_factory.hpp:77] Creating layer layer_256_1_scale1
I0114 23:30:32.040645 86027 net.cpp:124] Setting up layer_256_1_scale1
I0114 23:30:32.040675 86027 net.cpp:131] Top shape: 14 128 28 28 (1404928)
I0114 23:30:32.040701 86027 net.cpp:139] Memory required for data: 413048888
I0114 23:30:32.040735 86027 layer_factory.hpp:77] Creating layer layer_256_1_relu1
I0114 23:30:32.040789 86027 net.cpp:86] Creating Layer layer_256_1_relu1
I0114 23:30:32.040822 86027 net.cpp:408] layer_256_1_relu1 <- layer_256_1_bn1
I0114 23:30:32.040864 86027 net.cpp:369] layer_256_1_relu1 -> layer_256_1_bn1 (in-place)
I0114 23:30:32.040904 86027 net.cpp:124] Setting up layer_256_1_relu1
I0114 23:30:32.041133 86027 net.cpp:131] Top shape: 14 128 28 28 (1404928)
I0114 23:30:32.041172 86027 net.cpp:139] Memory required for data: 418668600
I0114 23:30:32.041215 86027 layer_factory.hpp:77] Creating layer layer_256_1_bn1_layer_256_1_relu1_0_split
I0114 23:30:32.041260 86027 net.cpp:86] Creating Layer layer_256_1_bn1_layer_256_1_relu1_0_split
I0114 23:30:32.041296 86027 net.cpp:408] layer_256_1_bn1_layer_256_1_relu1_0_split <- layer_256_1_bn1
I0114 23:30:32.041322 86027 net.cpp:382] layer_256_1_bn1_layer_256_1_relu1_0_split -> layer_256_1_bn1_layer_256_1_relu1_0_split_0
I0114 23:30:32.041362 86027 net.cpp:382] layer_256_1_bn1_layer_256_1_relu1_0_split -> layer_256_1_bn1_layer_256_1_relu1_0_split_1
I0114 23:30:32.041442 86027 net.cpp:124] Setting up layer_256_1_bn1_layer_256_1_relu1_0_split
I0114 23:30:32.041508 86027 net.cpp:131] Top shape: 14 128 28 28 (1404928)
I0114 23:30:32.041544 86027 net.cpp:131] Top shape: 14 128 28 28 (1404928)
I0114 23:30:32.041653 86027 net.cpp:139] Memory required for data: 429908024
I0114 23:30:32.042083 86027 layer_factory.hpp:77] Creating layer layer_256_1_conv1
I0114 23:30:32.042191 86027 net.cpp:86] Creating Layer layer_256_1_conv1
I0114 23:30:32.042258 86027 net.cpp:408] layer_256_1_conv1 <- layer_256_1_bn1_layer_256_1_relu1_0_split_0
I0114 23:30:32.042315 86027 net.cpp:382] layer_256_1_conv1 -> layer_256_1_conv1
I0114 23:30:32.046171 86027 net.cpp:124] Setting up layer_256_1_conv1
I0114 23:30:32.046218 86027 net.cpp:131] Top shape: 14 256 14 14 (702464)
I0114 23:30:32.046222 86027 net.cpp:139] Memory required for data: 432717880
I0114 23:30:32.046231 86027 layer_factory.hpp:77] Creating layer layer_256_1_bn2
I0114 23:30:32.046259 86027 net.cpp:86] Creating Layer layer_256_1_bn2
I0114 23:30:32.046267 86027 net.cpp:408] layer_256_1_bn2 <- layer_256_1_conv1
I0114 23:30:32.046272 86027 net.cpp:369] layer_256_1_bn2 -> layer_256_1_conv1 (in-place)
I0114 23:30:32.046335 86027 net.cpp:124] Setting up layer_256_1_bn2
I0114 23:30:32.046367 86027 net.cpp:131] Top shape: 14 256 14 14 (702464)
I0114 23:30:32.047195 86027 net.cpp:139] Memory required for data: 435527736
I0114 23:30:32.047209 86027 layer_factory.hpp:77] Creating layer layer_256_1_scale2
I0114 23:30:32.047240 86027 net.cpp:86] Creating Layer layer_256_1_scale2
I0114 23:30:32.047263 86027 net.cpp:408] layer_256_1_scale2 <- layer_256_1_conv1
I0114 23:30:32.047271 86027 net.cpp:369] layer_256_1_scale2 -> layer_256_1_conv1 (in-place)
I0114 23:30:32.047317 86027 layer_factory.hpp:77] Creating layer layer_256_1_scale2
I0114 23:30:32.047370 86027 net.cpp:124] Setting up layer_256_1_scale2
I0114 23:30:32.047389 86027 net.cpp:131] Top shape: 14 256 14 14 (702464)
I0114 23:30:32.047402 86027 net.cpp:139] Memory required for data: 438337592
I0114 23:30:32.047408 86027 layer_factory.hpp:77] Creating layer layer_256_1_relu2
I0114 23:30:32.047415 86027 net.cpp:86] Creating Layer layer_256_1_relu2
I0114 23:30:32.047418 86027 net.cpp:408] layer_256_1_relu2 <- layer_256_1_conv1
I0114 23:30:32.047437 86027 net.cpp:369] layer_256_1_relu2 -> layer_256_1_conv1 (in-place)
I0114 23:30:32.047739 86027 net.cpp:124] Setting up layer_256_1_relu2
I0114 23:30:32.047765 86027 net.cpp:131] Top shape: 14 256 14 14 (702464)
I0114 23:30:32.047797 86027 net.cpp:139] Memory required for data: 441147448
I0114 23:30:32.047832 86027 layer_factory.hpp:77] Creating layer layer_256_1_conv2
I0114 23:30:32.047857 86027 net.cpp:86] Creating Layer layer_256_1_conv2
I0114 23:30:32.047900 86027 net.cpp:408] layer_256_1_conv2 <- layer_256_1_conv1
I0114 23:30:32.047960 86027 net.cpp:382] layer_256_1_conv2 -> layer_256_1_conv2
I0114 23:30:32.059707 86027 net.cpp:124] Setting up layer_256_1_conv2
I0114 23:30:32.059785 86027 net.cpp:131] Top shape: 14 256 14 14 (702464)
I0114 23:30:32.059803 86027 net.cpp:139] Memory required for data: 443957304
I0114 23:30:32.059839 86027 layer_factory.hpp:77] Creating layer layer_256_1_conv_expand
I0114 23:30:32.059929 86027 net.cpp:86] Creating Layer layer_256_1_conv_expand
I0114 23:30:32.059998 86027 net.cpp:408] layer_256_1_conv_expand <- layer_256_1_bn1_layer_256_1_relu1_0_split_1
I0114 23:30:32.060340 86027 net.cpp:382] layer_256_1_conv_expand -> layer_256_1_conv_expand
I0114 23:30:32.060819 86027 net.cpp:124] Setting up layer_256_1_conv_expand
I0114 23:30:32.060847 86027 net.cpp:131] Top shape: 14 256 14 14 (702464)
I0114 23:30:32.060851 86027 net.cpp:139] Memory required for data: 446767160
I0114 23:30:32.060856 86027 layer_factory.hpp:77] Creating layer layer_256_1_sum
I0114 23:30:32.060868 86027 net.cpp:86] Creating Layer layer_256_1_sum
I0114 23:30:32.060873 86027 net.cpp:408] layer_256_1_sum <- layer_256_1_conv2
I0114 23:30:32.060876 86027 net.cpp:408] layer_256_1_sum <- layer_256_1_conv_expand
I0114 23:30:32.060880 86027 net.cpp:382] layer_256_1_sum -> layer_256_1_sum
I0114 23:30:32.060890 86027 net.cpp:124] Setting up layer_256_1_sum
I0114 23:30:32.060895 86027 net.cpp:131] Top shape: 14 256 14 14 (702464)
I0114 23:30:32.060899 86027 net.cpp:139] Memory required for data: 449577016
I0114 23:30:32.060900 86027 layer_factory.hpp:77] Creating layer layer_512_1_bn1
I0114 23:30:32.061098 86027 net.cpp:86] Creating Layer layer_512_1_bn1
I0114 23:30:32.061105 86027 net.cpp:408] layer_512_1_bn1 <- layer_256_1_sum
I0114 23:30:32.061112 86027 net.cpp:382] layer_512_1_bn1 -> layer_512_1_bn1
I0114 23:30:32.061149 86027 net.cpp:124] Setting up layer_512_1_bn1
I0114 23:30:32.061156 86027 net.cpp:131] Top shape: 14 256 14 14 (702464)
I0114 23:30:32.061172 86027 net.cpp:139] Memory required for data: 452386872
I0114 23:30:32.061178 86027 layer_factory.hpp:77] Creating layer layer_512_1_scale1
I0114 23:30:32.061187 86027 net.cpp:86] Creating Layer layer_512_1_scale1
I0114 23:30:32.061192 86027 net.cpp:408] layer_512_1_scale1 <- layer_512_1_bn1
I0114 23:30:32.061197 86027 net.cpp:369] layer_512_1_scale1 -> layer_512_1_bn1 (in-place)
I0114 23:30:32.061209 86027 layer_factory.hpp:77] Creating layer layer_512_1_scale1
I0114 23:30:32.061225 86027 net.cpp:124] Setting up layer_512_1_scale1
I0114 23:30:32.061230 86027 net.cpp:131] Top shape: 14 256 14 14 (702464)
I0114 23:30:32.061676 86027 net.cpp:139] Memory required for data: 455196728
I0114 23:30:32.061689 86027 layer_factory.hpp:77] Creating layer layer_512_1_relu1
I0114 23:30:32.061699 86027 net.cpp:86] Creating Layer layer_512_1_relu1
I0114 23:30:32.061704 86027 net.cpp:408] layer_512_1_relu1 <- layer_512_1_bn1
I0114 23:30:32.061709 86027 net.cpp:369] layer_512_1_relu1 -> layer_512_1_bn1 (in-place)
I0114 23:30:32.061717 86027 net.cpp:124] Setting up layer_512_1_relu1
I0114 23:30:32.061720 86027 net.cpp:131] Top shape: 14 256 14 14 (702464)
I0114 23:30:32.061722 86027 net.cpp:139] Memory required for data: 458006584
I0114 23:30:32.061725 86027 layer_factory.hpp:77] Creating layer layer_512_1_bn1_layer_512_1_relu1_0_split
I0114 23:30:32.061750 86027 net.cpp:86] Creating Layer layer_512_1_bn1_layer_512_1_relu1_0_split
I0114 23:30:32.061770 86027 net.cpp:408] layer_512_1_bn1_layer_512_1_relu1_0_split <- layer_512_1_bn1
I0114 23:30:32.061785 86027 net.cpp:382] layer_512_1_bn1_layer_512_1_relu1_0_split -> layer_512_1_bn1_layer_512_1_relu1_0_split_0
I0114 23:30:32.062028 86027 net.cpp:382] layer_512_1_bn1_layer_512_1_relu1_0_split -> layer_512_1_bn1_layer_512_1_relu1_0_split_1
I0114 23:30:32.062057 86027 net.cpp:124] Setting up layer_512_1_bn1_layer_512_1_relu1_0_split
I0114 23:30:32.062063 86027 net.cpp:131] Top shape: 14 256 14 14 (702464)
I0114 23:30:32.062090 86027 net.cpp:131] Top shape: 14 256 14 14 (702464)
I0114 23:30:32.062098 86027 net.cpp:139] Memory required for data: 463626296
I0114 23:30:32.062100 86027 layer_factory.hpp:77] Creating layer layer_512_1_conv1
I0114 23:30:32.062108 86027 net.cpp:86] Creating Layer layer_512_1_conv1
I0114 23:30:32.062124 86027 net.cpp:408] layer_512_1_conv1 <- layer_512_1_bn1_layer_512_1_relu1_0_split_0
I0114 23:30:32.062132 86027 net.cpp:382] layer_512_1_conv1 -> layer_512_1_conv1
I0114 23:30:32.076192 86027 net.cpp:124] Setting up layer_512_1_conv1
I0114 23:30:32.076231 86027 net.cpp:131] Top shape: 14 512 7 7 (351232)
I0114 23:30:32.076244 86027 net.cpp:139] Memory required for data: 465031224
I0114 23:30:32.076956 86027 layer_factory.hpp:77] Creating layer layer_512_1_bn2
I0114 23:30:32.076969 86027 net.cpp:86] Creating Layer layer_512_1_bn2
I0114 23:30:32.076974 86027 net.cpp:408] layer_512_1_bn2 <- layer_512_1_conv1
I0114 23:30:32.076982 86027 net.cpp:369] layer_512_1_bn2 -> layer_512_1_conv1 (in-place)
I0114 23:30:32.077062 86027 net.cpp:124] Setting up layer_512_1_bn2
I0114 23:30:32.077103 86027 net.cpp:131] Top shape: 14 512 7 7 (351232)
I0114 23:30:32.077107 86027 net.cpp:139] Memory required for data: 466436152
I0114 23:30:32.077113 86027 layer_factory.hpp:77] Creating layer layer_512_1_scale2
I0114 23:30:32.077169 86027 net.cpp:86] Creating Layer layer_512_1_scale2
I0114 23:30:32.077178 86027 net.cpp:408] layer_512_1_scale2 <- layer_512_1_conv1
I0114 23:30:32.077185 86027 net.cpp:369] layer_512_1_scale2 -> layer_512_1_conv1 (in-place)
I0114 23:30:32.077261 86027 layer_factory.hpp:77] Creating layer layer_512_1_scale2
I0114 23:30:32.077327 86027 net.cpp:124] Setting up layer_512_1_scale2
I0114 23:30:32.077580 86027 net.cpp:131] Top shape: 14 512 7 7 (351232)
I0114 23:30:32.077585 86027 net.cpp:139] Memory required for data: 467841080
I0114 23:30:32.077591 86027 layer_factory.hpp:77] Creating layer layer_512_1_relu2
I0114 23:30:32.077613 86027 net.cpp:86] Creating Layer layer_512_1_relu2
I0114 23:30:32.077616 86027 net.cpp:408] layer_512_1_relu2 <- layer_512_1_conv1
I0114 23:30:32.077620 86027 net.cpp:369] layer_512_1_relu2 -> layer_512_1_conv1 (in-place)
I0114 23:30:32.077625 86027 net.cpp:124] Setting up layer_512_1_relu2
I0114 23:30:32.077668 86027 net.cpp:131] Top shape: 14 512 7 7 (351232)
I0114 23:30:32.077683 86027 net.cpp:139] Memory required for data: 469246008
I0114 23:30:32.077688 86027 layer_factory.hpp:77] Creating layer layer_512_1_conv2
I0114 23:30:32.077709 86027 net.cpp:86] Creating Layer layer_512_1_conv2
I0114 23:30:32.077733 86027 net.cpp:408] layer_512_1_conv2 <- layer_512_1_conv1
I0114 23:30:32.077740 86027 net.cpp:382] layer_512_1_conv2 -> layer_512_1_conv2
I0114 23:30:32.101585 86027 net.cpp:124] Setting up layer_512_1_conv2
I0114 23:30:32.101651 86027 net.cpp:131] Top shape: 14 512 7 7 (351232)
I0114 23:30:32.101657 86027 net.cpp:139] Memory required for data: 470650936
I0114 23:30:32.101666 86027 layer_factory.hpp:77] Creating layer layer_512_1_conv_expand
I0114 23:30:32.101702 86027 net.cpp:86] Creating Layer layer_512_1_conv_expand
I0114 23:30:32.101714 86027 net.cpp:408] layer_512_1_conv_expand <- layer_512_1_bn1_layer_512_1_relu1_0_split_1
I0114 23:30:32.101729 86027 net.cpp:382] layer_512_1_conv_expand -> layer_512_1_conv_expand
I0114 23:30:32.102902 86027 net.cpp:124] Setting up layer_512_1_conv_expand
I0114 23:30:32.102926 86027 net.cpp:131] Top shape: 14 512 7 7 (351232)
I0114 23:30:32.102931 86027 net.cpp:139] Memory required for data: 472055864
I0114 23:30:32.102934 86027 layer_factory.hpp:77] Creating layer layer_512_1_sum
I0114 23:30:32.102941 86027 net.cpp:86] Creating Layer layer_512_1_sum
I0114 23:30:32.102942 86027 net.cpp:408] layer_512_1_sum <- layer_512_1_conv2
I0114 23:30:32.103204 86027 net.cpp:408] layer_512_1_sum <- layer_512_1_conv_expand
I0114 23:30:32.103215 86027 net.cpp:382] layer_512_1_sum -> layer_512_1_sum
I0114 23:30:32.103224 86027 net.cpp:124] Setting up layer_512_1_sum
I0114 23:30:32.103227 86027 net.cpp:131] Top shape: 14 512 7 7 (351232)
I0114 23:30:32.103230 86027 net.cpp:139] Memory required for data: 473460792
I0114 23:30:32.103232 86027 layer_factory.hpp:77] Creating layer last_bn
I0114 23:30:32.103236 86027 net.cpp:86] Creating Layer last_bn
I0114 23:30:32.103240 86027 net.cpp:408] last_bn <- layer_512_1_sum
I0114 23:30:32.103273 86027 net.cpp:369] last_bn -> layer_512_1_sum (in-place)
I0114 23:30:32.103301 86027 net.cpp:124] Setting up last_bn
I0114 23:30:32.103317 86027 net.cpp:131] Top shape: 14 512 7 7 (351232)
I0114 23:30:32.103320 86027 net.cpp:139] Memory required for data: 474865720
I0114 23:30:32.103327 86027 layer_factory.hpp:77] Creating layer last_scale
I0114 23:30:32.103343 86027 net.cpp:86] Creating Layer last_scale
I0114 23:30:32.103565 86027 net.cpp:408] last_scale <- layer_512_1_sum
I0114 23:30:32.103579 86027 net.cpp:369] last_scale -> layer_512_1_sum (in-place)
I0114 23:30:32.103591 86027 layer_factory.hpp:77] Creating layer last_scale
I0114 23:30:32.103621 86027 net.cpp:124] Setting up last_scale
I0114 23:30:32.103673 86027 net.cpp:131] Top shape: 14 512 7 7 (351232)
I0114 23:30:32.103693 86027 net.cpp:139] Memory required for data: 476270648
I0114 23:30:32.103700 86027 layer_factory.hpp:77] Creating layer last_relu
I0114 23:30:32.103708 86027 net.cpp:86] Creating Layer last_relu
I0114 23:30:32.103721 86027 net.cpp:408] last_relu <- layer_512_1_sum
I0114 23:30:32.103736 86027 net.cpp:369] last_relu -> layer_512_1_sum (in-place)
I0114 23:30:32.103767 86027 net.cpp:124] Setting up last_relu
I0114 23:30:32.103798 86027 net.cpp:131] Top shape: 14 512 7 7 (351232)
I0114 23:30:32.103801 86027 net.cpp:139] Memory required for data: 477675576
I0114 23:30:32.103804 86027 layer_factory.hpp:77] Creating layer global_pool
I0114 23:30:32.103998 86027 net.cpp:86] Creating Layer global_pool
I0114 23:30:32.104004 86027 net.cpp:408] global_pool <- layer_512_1_sum
I0114 23:30:32.104009 86027 net.cpp:382] global_pool -> global_pool
I0114 23:30:32.104017 86027 net.cpp:124] Setting up global_pool
I0114 23:30:32.104020 86027 net.cpp:131] Top shape: 14 512 1 1 (7168)
I0114 23:30:32.104022 86027 net.cpp:139] Memory required for data: 477704248
I0114 23:30:32.104025 86027 layer_factory.hpp:77] Creating layer global_pool_drop
I0114 23:30:32.104079 86027 net.cpp:86] Creating Layer global_pool_drop
I0114 23:30:32.104110 86027 net.cpp:408] global_pool_drop <- global_pool
I0114 23:30:32.104116 86027 net.cpp:369] global_pool_drop -> global_pool (in-place)
I0114 23:30:32.104156 86027 net.cpp:124] Setting up global_pool_drop
I0114 23:30:32.104158 86027 net.cpp:131] Top shape: 14 512 1 1 (7168)
I0114 23:30:32.104161 86027 net.cpp:139] Memory required for data: 477732920
I0114 23:30:32.104163 86027 layer_factory.hpp:77] Creating layer fc_food
I0114 23:30:32.104352 86027 net.cpp:86] Creating Layer fc_food
I0114 23:30:32.104358 86027 net.cpp:408] fc_food <- global_pool
I0114 23:30:32.104389 86027 net.cpp:382] fc_food -> fc_food
I0114 23:30:32.104444 86027 net.cpp:124] Setting up fc_food
I0114 23:30:32.104475 86027 net.cpp:131] Top shape: 14 7 (98)
I0114 23:30:32.104480 86027 net.cpp:139] Memory required for data: 477733312
I0114 23:30:32.104492 86027 layer_factory.hpp:77] Creating layer loss
I0114 23:30:32.104518 86027 net.cpp:86] Creating Layer loss
I0114 23:30:32.104537 86027 net.cpp:408] loss <- fc_food
I0114 23:30:32.104575 86027 net.cpp:408] loss <- label
I0114 23:30:32.104598 86027 net.cpp:382] loss -> loss
I0114 23:30:32.104642 86027 layer_factory.hpp:77] Creating layer loss
…
I0114 23:30:32.181156 86027 solver.cpp:190] Creating test net (#0) specified by net file: food_resnet_10_cvgj_finetune.prototxt
I0114 23:30:32.181223 86027 net.cpp:296] The NetState phase (1) differed from the phase (0) specified by a rule in layer data
I0114 23:30:32.181485 86027 net.cpp:53] Initializing net from parameters: 
name: "Food-ResNet-10-CVGJ"
state {
  phase: TEST
}
layer {
  name: "data"
  type: "Data"
  top: "data"
  top: "label"
  include {
    phase: TEST
  }
  transform_param {
    mirror: false
  }
  data_param {
    source: "val_lmdb"
    batch_size: 7
    backend: LMDB
  }
}
layer {
  name: "data_bn"
  type: "BatchNorm"
  bottom: "data"
  top: "data_bn"
  param {
    lr_mult: 0
    decay_mult: 0
  }
  param {
    lr_mult: 0
    decay_mult: 0
  }
  param {
    lr_mult: 0
    decay_mult: 0
  }
}
layer {
  name: "data_scale"
  type: "Scale"
  bottom: "data_bn"
  top: "data_bn"
  param {
    lr_mult: 1
    decay_mult: 1
  }
  param {
    lr_mult: 2
    decay_mult: 1
  }
  scale_param {
    bias_term: true
  }
}
layer {
  name: "conv1"
  type: "Convolution"
  bottom: "data_bn"
  top: "conv1"
  param {
    lr_mult: 1
    decay_mult: 1
  }
  param {
    lr_mult: 2
    decay_mult: 1
  }
  convolution_param {
    num_output: 64
    pad: 3
    kernel_size: 7
    stride: 2
    weight_filler {
      type: "msra"
      variance_norm: FAN_OUT
    }
    bias_filler {
      type: "constant"
      value: 0
    }
  }
}
layer {
  name: "conv1_bn"
  type: "BatchNorm"
  bottom: "conv1"
  top: "conv1"
  param {
    lr_mult: 0
    decay_mult: 0
  }
  param {
    lr_mult: 0
    decay_mult: 0
  }
  param {
    lr_mult: 0
    decay_mult: 0
  }
}
layer {
  name: "conv1_scale"
  type: "Scale"
  bottom: "conv1"
  top: "conv1"
  param {
    lr_mult: 1
    decay_mult: 1
  }
  param {
    lr_mult: 2
    decay_mult: 1
  }
  scale_param {
    bias_term: true
  }
}
layer {
  name: "conv1_relu"
  type: "ReLU"
  bottom: "conv1"
  top: "conv1"
}
layer {
  name: "conv1_pool"
  type: "Pooling"
  bottom: "conv1"
  top: "conv1_pool"
  pooling_param {
    kernel_size: 3
    stride: 2
  }
}
layer {
  name: "layer_64_1_conv1"
  type: "Convolution"
  bottom: "conv1_pool"
  top: "layer_64_1_conv1"
  param {
    lr_mult: 1
    decay_mult: 1
  }
  convolution_param {
    num_output: 64
    bias_term: false
    pad: 1
    kernel_size: 3
    stride: 1
    weight_filler {
      type: "msra"
    }
    bias_filler {
      type: "constant"
      value: 0
    }
  }
}
layer {
  name: "layer_64_1_bn2"
  type: "BatchNorm"
  bottom: "layer_64_1_conv1"
  top: "layer_64_1_conv1"
  param {
    lr_mult: 0
    decay_mult: 0
  }
  param {
    lr_mult: 0
    decay_mult: 0
  }
  param {
    lr_mult: 0
    decay_mult: 0
  }
}
layer {
  name: "layer_64_1_scale2"
  type: "Scale"
  bottom: "layer_64_1_conv1"
  top: "layer_64_1_conv1"
  param {
    lr_mult: 1
    decay_mult: 1
  }
  param {
    lr_mult: 2
    decay_mult: 1
  }
  scale_param {
    bias_term: true
  }
}
layer {
  name: "layer_64_1_relu2"
  type: "ReLU"
  bottom: "layer_64_1_conv1"
  top: "layer_64_1_conv1"
}
layer {
  name: "layer_64_1_conv2"
  type: "Convolution"
  bottom: "layer_64_1_conv1"
  top: "layer_64_1_conv2"
  param {
    lr_mult: 1
    decay_mult: 1
  }
  convolution_param {
    num_output: 64
    bias_term: false
    pad: 1
    kernel_size: 3
    stride: 1
    weight_filler {
      type: "msra"
    }
    bias_filler {
      type: "constant"
      value: 0
    }
  }
}
layer {
  name: "layer_64_1_sum"
  type: "Eltwise"
  bottom: "layer_64_1_conv2"
  bottom: "conv1_pool"
  top: "layer_64_1_sum"
}
layer {
  name: "layer_128_1_bn1"
  type: "BatchNorm"
  bottom: "layer_64_1_sum"
  top: "layer_128_1_bn1"
  param {
    lr_mult: 0
    decay_mult: 0
  }
  param {
    lr_mult: 0
    decay_mult: 0
  }
  param {
    lr_mult: 0
    decay_mult: 0
  }
}
layer {
  name: "layer_128_1_scale1"
  type: "Scale"
  bottom: "layer_128_1_bn1"
  top: "layer_128_1_bn1"
  param {
    lr_mult: 1
    decay_mult: 1
  }
  param {
    lr_mult: 2
    decay_mult: 1
  }
  scale_param {
    bias_term: true
  }
}
layer {
  name: "layer_128_1_relu1"
  type: "ReLU"
  bottom: "layer_128_1_bn1"
  top: "layer_128_1_bn1"
}
layer {
  name: "layer_128_1_conv1"
  type: "Convolution"
  bottom: "layer_128_1_bn1"
  top: "layer_128_1_conv1"
  param {
    lr_mult: 1
    decay_mult: 1
  }
  convolution_param {
    num_output: 128
    bias_term: false
    pad: 1
    kernel_size: 3
    stride: 2
    weight_filler {
      type: "msra"
    }
    bias_filler {
      type: "constant"
      value: 0
    }
  }
}
layer {
  name: "layer_128_1_bn2"
  type: "BatchNorm"
  bottom: "layer_128_1_conv1"
  top: "layer_128_1_conv1"
  param {
    lr_mult: 0
    decay_mult: 0
  }
  param {
    lr_mult: 0
    decay_mult: 0
  }
  param {
    lr_mult: 0
    decay_mult: 0
  }
}
layer {
  name: "layer_128_1_scale2"
  type: "Scale"
  bottom: "layer_128_1_conv1"
  top: "layer_128_1_conv1"
  param {
    lr_mult: 1
    decay_mult: 1
  }
  param {
    lr_mult: 2
    decay_mult: 1
  }
  scale_param {
    bias_term: true
  }
}
layer {
  name: "layer_128_1_relu2"
  type: "ReLU"
  bottom: "layer_128_1_conv1"
  top: "layer_128_1_conv1"
}
layer {
  name: "layer_128_1_conv2"
  type: "Convolution"
  bottom: "layer_128_1_conv1"
  top: "layer_128_1_conv2"
  param {
    lr_mult: 1
    decay_mult: 1
  }
  convolution_param {
    num_output: 128
    bias_term: false
    pad: 1
    kernel_size: 3
    stride: 1
    weight_filler {
      type: "msra"
    }
    bias_filler {
      type: "constant"
      value: 0
    }
  }
}
layer {
  name: "layer_128_1_conv_expand"
  type: "Convolution"
  bottom: "layer_128_1_bn1"
  top: "layer_128_1_conv_expand"
  param {
    lr_mult: 1
    decay_mult: 1
  }
  convolution_param {
    num_output: 128
    bias_term: false
    pad: 0
    kernel_size: 1
    stride: 2
    weight_filler {
      type: "msra"
    }
    bias_filler {
      type: "constant"
      value: 0
    }
  }
}
layer {
  name: "layer_128_1_sum"
  type: "Eltwise"
  bottom: "layer_128_1_conv2"
  bottom: "layer_128_1_conv_expand"
  top: "layer_128_1_sum"
}
layer {
  name: "layer_256_1_bn1"
  type: "BatchNorm"
  bottom: "layer_128_1_sum"
  top: "layer_256_1_bn1"
  param {
    lr_mult: 0
    decay_mult: 0
  }
  param {
    lr_mult: 0
    decay_mult: 0
  }
  param {
    lr_mult: 0
    decay_mult: 0
  }
}
layer {
  name: "layer_256_1_scale1"
  type: "Scale"
  bottom: "layer_256_1_bn1"
  top: "layer_256_1_bn1"
  param {
    lr_mult: 1
    decay_mult: 1
  }
  param {
    lr_mult: 2
    decay_mult: 1
  }
  scale_param {
    bias_term: true
  }
}
layer {
  name: "layer_256_1_relu1"
  type: "ReLU"
  bottom: "layer_256_1_bn1"
  top: "layer_256_1_bn1"
}
layer {
  name: "layer_256_1_conv1"
  type: "Convolution"
  bottom: "layer_256_1_bn1"
  top: "layer_256_1_conv1"
  param {
    lr_mult: 1
    decay_mult: 1
  }
  convolution_param {
    num_output: 256
    bias_term: false
    pad: 1
    kernel_size: 3
    stride: 2
    weight_filler {
      type: "msra"
    }
    bias_filler {
      type: "constant"
      value: 0
    }
  }
}
layer {
  name: "layer_256_1_bn2"
  type: "BatchNorm"
  bottom: "layer_256_1_conv1"
  top: "layer_256_1_conv1"
  param {
    lr_mult: 0
    decay_mult: 0
  }
  param {
    lr_mult: 0
    decay_mult: 0
  }
  param {
    lr_mult: 0
    decay_mult: 0
  }
}
layer {
  name: "layer_256_1_scale2"
  type: "Scale"
  bottom: "layer_256_1_conv1"
  top: "layer_256_1_conv1"
  param {
    lr_mult: 1
    decay_mult: 1
  }
  param {
    lr_mult: 2
    decay_mult: 1
  }
  scale_param {
    bias_term: true
  }
}
layer {
  name: "layer_256_1_relu2"
  type: "ReLU"
  bottom: "layer_256_1_conv1"
  top: "layer_256_1_conv1"
}
layer {
  name: "layer_256_1_conv2"
  type: "Convolution"
  bottom: "layer_256_1_conv1"
  top: "layer_256_1_conv2"
  param {
    lr_mult: 1
    decay_mult: 1
  }
  convolution_param {
    num_output: 256
    bias_term: false
    pad: 1
    kernel_size: 3
    stride: 1
    weight_filler {
      type: "msra"
    }
    bias_filler {
      type: "constant"
      value: 0
    }
  }
}
layer {
  name: "layer_256_1_conv_expand"
  type: "Convolution"
  bottom: "layer_256_1_bn1"
  top: "layer_256_1_conv_expand"
  param {
    lr_mult: 1
    decay_mult: 1
  }
  convolution_param {
    num_output: 256
    bias_term: false
    pad: 0
    kernel_size: 1
    stride: 2
    weight_filler {
      type: "msra"
    }
    bias_filler {
      type: "constant"
      value: 0
    }
  }
}
layer {
  name: "layer_256_1_sum"
  type: "Eltwise"
  bottom: "layer_256_1_conv2"
  bottom: "layer_256_1_conv_expand"
  top: "layer_256_1_sum"
}
layer {
  name: "layer_512_1_bn1"
  type: "BatchNorm"
  bottom: "layer_256_1_sum"
  top: "layer_512_1_bn1"
  param {
    lr_mult: 0
    decay_mult: 0
  }
  param {
    lr_mult: 0
    decay_mult: 0
  }
  param {
    lr_mult: 0
    decay_mult: 0
  }
}
layer {
  name: "layer_512_1_scale1"
  type: "Scale"
  bottom: "layer_512_1_bn1"
  top: "layer_512_1_bn1"
  param {
    lr_mult: 1
    decay_mult: 1
  }
  param {
    lr_mult: 2
    decay_mult: 1
  }
  scale_param {
    bias_term: true
  }
}
layer {
  name: "layer_512_1_relu1"
  type: "ReLU"
  bottom: "layer_512_1_bn1"
  top: "layer_512_1_bn1"
}
layer {
  name: "layer_512_1_conv1"
  type: "Convolution"
  bottom: "layer_512_1_bn1"
  top: "layer_512_1_conv1"
  param {
    lr_mult: 1
    decay_mult: 1
  }
  convolution_param {
    num_output: 512
    bias_term: false
    pad: 1
    kernel_size: 3
    stride: 2
    weight_filler {
      type: "msra"
    }
    bias_filler {
      type: "constant"
      value: 0
    }
  }
}
layer {
  name: "layer_512_1_bn2"
  type: "BatchNorm"
  bottom: "layer_512_1_conv1"
  top: "layer_512_1_conv1"
  param {
    lr_mult: 0
    decay_mult: 0
  }
  param {
    lr_mult: 0
    decay_mult: 0
  }
  param {
    lr_mult: 0
    decay_mult: 0
  }
}
layer {
  name: "layer_512_1_scale2"
  type: "Scale"
  bottom: "layer_512_1_conv1"
  top: "layer_512_1_conv1"
  param {
    lr_mult: 1
    decay_mult: 1
  }
  param {
    lr_mult: 2
    decay_mult: 1
  }
  scale_param {
    bias_term: true
  }
}
layer {
  name: "layer_512_1_relu2"
  type: "ReLU"
  bottom: "layer_512_1_conv1"
  top: "layer_512_1_conv1"
}
layer {
  name: "layer_512_1_conv2"
  type: "Convolution"
  bottom: "layer_512_1_conv1"
  top: "layer_512_1_conv2"
  param {
    lr_mult: 1
    decay_mult: 1
  }
  convolution_param {
    num_output: 512
    bias_term: false
    pad: 1
    kernel_size: 3
    stride: 1
    weight_filler {
      type: "msra"
    }
    bias_filler {
      type: "constant"
      value: 0
    }
  }
}
layer {
  name: "layer_512_1_conv_expand"
  type: "Convolution"
  bottom: "layer_512_1_bn1"
  top: "layer_512_1_conv_expand"
  param {
    lr_mult: 1
    decay_mult: 1
  }
  convolution_param {
    num_output: 512
    bias_term: false
    pad: 0
    kernel_size: 1
    stride: 2
    weight_filler {
      type: "msra"
    }
    bias_filler {
      type: "constant"
      value: 0
    }
  }
}
layer {
  name: "layer_512_1_sum"
  type: "Eltwise"
  bottom: "layer_512_1_conv2"
  bottom: "layer_512_1_conv_expand"
  top: "layer_512_1_sum"
}
layer {
  name: "last_bn"
  type: "BatchNorm"
  bottom: "layer_512_1_sum"
  top: "layer_512_1_sum"
  param {
    lr_mult: 0
    decay_mult: 0
  }
  param {
    lr_mult: 0
    decay_mult: 0
  }
  param {
    lr_mult: 0
    decay_mult: 0
  }
}
layer {
  name: "last_scale"
  type: "Scale"
  bottom: "layer_512_1_sum"
  top: "layer_512_1_sum"
  param {
    lr_mult: 1
    decay_mult: 1
  }
  param {
    lr_mult: 2
    decay_mult: 1
  }
  scale_param {
    bias_term: true
  }
}
layer {
  name: "last_relu"
  type: "ReLU"
  bottom: "layer_512_1_sum"
  top: "layer_512_1_sum"
}
layer {
  name: "global_pool"
  type: "Pooling"
  bottom: "layer_512_1_sum"
  top: "global_pool"
  pooling_param {
    pool: AVE
    global_pooling: true
  }
}
layer {
  name: "global_pool_drop"
  type: "Dropout"
  bottom: "global_pool"
  top: "global_pool"
  dropout_param {
    dropout_ratio: 0.382
  }
}
layer {
  name: "fc_food"
  type: "InnerProduct"
  bottom: "global_pool"
  top: "fc_food"
  param {
    lr_mult: 1
    decay_mult: 1
  }
  param {
    lr_mult: 2
    decay_mult: 1
  }
  inner_product_param {
    num_output: 7
  }
}
layer {
  name: "loss"
  type: "SoftmaxWithLoss"
  bottom: "fc_food"
  bottom: "label"
  top: "loss"
}
layer {
  name: "accuracy"
  type: "Accuracy"
  bottom: "fc_food"
  bottom: "label"
  top: "accuracy"
  include {
    phase: TEST
  }
}
I0114 23:30:32.182348 86027 layer_factory.hpp:77] Creating layer data
I0114 23:30:32.204959 86027 db_lmdb.cpp:35] Opened lmdb val_lmdb
I0114 23:30:32.205463 86027 net.cpp:86] Creating Layer data
I0114 23:30:32.205510 86027 net.cpp:382] data -> data
I0114 23:30:32.205545 86027 net.cpp:382] data -> label
I0114 23:30:32.206039 86027 data_layer.cpp:45] output data size: 7,3,224,224
I0114 23:30:32.206792 86027 net.cpp:124] Setting up data
I0114 23:30:32.206815 86027 net.cpp:131] Top shape: 7 3 224 224 (1053696)
I0114 23:30:32.206820 86027 net.cpp:131] Top shape: 7 (7)
I0114 23:30:32.206821 86027 net.cpp:139] Memory required for data: 4214812
I0114 23:30:32.206825 86027 layer_factory.hpp:77] Creating layer label_data_1_split
I0114 23:30:32.206835 86027 net.cpp:86] Creating Layer label_data_1_split
I0114 23:30:32.206838 86027 net.cpp:408] label_data_1_split <- label
I0114 23:30:32.206842 86027 net.cpp:382] label_data_1_split -> label_data_1_split_0
I0114 23:30:32.206883 86027 net.cpp:382] label_data_1_split -> label_data_1_split_1
I0114 23:30:32.206900 86027 net.cpp:124] Setting up label_data_1_split
I0114 23:30:32.206950 86027 net.cpp:131] Top shape: 7 (7)
I0114 23:30:32.206955 86027 net.cpp:131] Top shape: 7 (7)
I0114 23:30:32.206957 86027 net.cpp:139] Memory required for data: 4214868
I0114 23:30:32.206971 86027 layer_factory.hpp:77] Creating layer data_bn
I0114 23:30:32.206980 86027 net.cpp:86] Creating Layer data_bn
I0114 23:30:32.207195 86027 net.cpp:408] data_bn <- data
I0114 23:30:32.207221 86027 net.cpp:382] data_bn -> data_bn
I0114 23:30:32.207415 86027 net.cpp:124] Setting up data_bn
I0114 23:30:32.207454 86027 net.cpp:131] Top shape: 7 3 224 224 (1053696)
I0114 23:30:32.207459 86027 net.cpp:139] Memory required for data: 8429652
I0114 23:30:32.207484 86027 layer_factory.hpp:77] Creating layer data_scale
I0114 23:30:32.207509 86027 net.cpp:86] Creating Layer data_scale
I0114 23:30:32.207518 86027 net.cpp:408] data_scale <- data_bn
I0114 23:30:32.207523 86027 net.cpp:369] data_scale -> data_bn (in-place)
I0114 23:30:32.207536 86027 layer_factory.hpp:77] Creating layer data_scale
I0114 23:30:32.207813 86027 net.cpp:124] Setting up data_scale
I0114 23:30:32.207842 86027 net.cpp:131] Top shape: 7 3 224 224 (1053696)
I0114 23:30:32.207864 86027 net.cpp:139] Memory required for data: 12644436
I0114 23:30:32.207878 86027 layer_factory.hpp:77] Creating layer conv1
I0114 23:30:32.207901 86027 net.cpp:86] Creating Layer conv1
I0114 23:30:32.208552 86027 net.cpp:408] conv1 <- data_bn
I0114 23:30:32.208586 86027 net.cpp:382] conv1 -> conv1
I0114 23:30:32.208745 86027 net.cpp:124] Setting up conv1
I0114 23:30:32.208797 86027 net.cpp:131] Top shape: 7 64 112 112 (5619712)
I0114 23:30:32.208802 86027 net.cpp:139] Memory required for data: 35123284
I0114 23:30:32.208811 86027 layer_factory.hpp:77] Creating layer conv1_bn
I0114 23:30:32.208863 86027 net.cpp:86] Creating Layer conv1_bn
I0114 23:30:32.208889 86027 net.cpp:408] conv1_bn <- conv1
I0114 23:30:32.208904 86027 net.cpp:369] conv1_bn -> conv1 (in-place)
I0114 23:30:32.208971 86027 net.cpp:124] Setting up conv1_bn
I0114 23:30:32.209005 86027 net.cpp:131] Top shape: 7 64 112 112 (5619712)
I0114 23:30:32.209009 86027 net.cpp:139] Memory required for data: 57602132
I0114 23:30:32.209033 86027 layer_factory.hpp:77] Creating layer conv1_scale
I0114 23:30:32.209043 86027 net.cpp:86] Creating Layer conv1_scale
I0114 23:30:32.209045 86027 net.cpp:408] conv1_scale <- conv1
I0114 23:30:32.209446 86027 net.cpp:369] conv1_scale -> conv1 (in-place)
I0114 23:30:32.209476 86027 layer_factory.hpp:77] Creating layer conv1_scale
I0114 23:30:32.209586 86027 net.cpp:124] Setting up conv1_scale
I0114 23:30:32.209759 86027 net.cpp:131] Top shape: 7 64 112 112 (5619712)
I0114 23:30:32.209765 86027 net.cpp:139] Memory required for data: 80080980
I0114 23:30:32.209787 86027 layer_factory.hpp:77] Creating layer conv1_relu
I0114 23:30:32.209812 86027 net.cpp:86] Creating Layer conv1_relu
I0114 23:30:32.209825 86027 net.cpp:408] conv1_relu <- conv1
I0114 23:30:32.209836 86027 net.cpp:369] conv1_relu -> conv1 (in-place)
I0114 23:30:32.209858 86027 net.cpp:124] Setting up conv1_relu
I0114 23:30:32.209867 86027 net.cpp:131] Top shape: 7 64 112 112 (5619712)
I0114 23:30:32.209878 86027 net.cpp:139] Memory required for data: 102559828
I0114 23:30:32.209882 86027 layer_factory.hpp:77] Creating layer conv1_pool
I0114 23:30:32.209898 86027 net.cpp:86] Creating Layer conv1_pool
I0114 23:30:32.209915 86027 net.cpp:408] conv1_pool <- conv1
I0114 23:30:32.210186 86027 net.cpp:382] conv1_pool -> conv1_pool
I0114 23:30:32.210248 86027 net.cpp:124] Setting up conv1_pool
I0114 23:30:32.210274 86027 net.cpp:131] Top shape: 7 64 56 56 (1404928)
I0114 23:30:32.210279 86027 net.cpp:139] Memory required for data: 108179540
I0114 23:30:32.210296 86027 layer_factory.hpp:77] Creating layer conv1_pool_conv1_pool_0_split
I0114 23:30:32.210307 86027 net.cpp:86] Creating Layer conv1_pool_conv1_pool_0_split
I0114 23:30:32.210328 86027 net.cpp:408] conv1_pool_conv1_pool_0_split <- conv1_pool
I0114 23:30:32.210355 86027 net.cpp:382] conv1_pool_conv1_pool_0_split -> conv1_pool_conv1_pool_0_split_0
I0114 23:30:32.210384 86027 net.cpp:382] conv1_pool_conv1_pool_0_split -> conv1_pool_conv1_pool_0_split_1
I0114 23:30:32.210448 86027 net.cpp:124] Setting up conv1_pool_conv1_pool_0_split
I0114 23:30:32.210475 86027 net.cpp:131] Top shape: 7 64 56 56 (1404928)
I0114 23:30:32.210511 86027 net.cpp:131] Top shape: 7 64 56 56 (1404928)
I0114 23:30:32.210764 86027 net.cpp:139] Memory required for data: 119418964
I0114 23:30:32.210791 86027 layer_factory.hpp:77] Creating layer layer_64_1_conv1
I0114 23:30:32.210803 86027 net.cpp:86] Creating Layer layer_64_1_conv1
I0114 23:30:32.210819 86027 net.cpp:408] layer_64_1_conv1 <- conv1_pool_conv1_pool_0_split_0
I0114 23:30:32.210829 86027 net.cpp:382] layer_64_1_conv1 -> layer_64_1_conv1
I0114 23:30:32.211246 86027 net.cpp:124] Setting up layer_64_1_conv1
I0114 23:30:32.211266 86027 net.cpp:131] Top shape: 7 64 56 56 (1404928)
I0114 23:30:32.211271 86027 net.cpp:139] Memory required for data: 125038676
I0114 23:30:32.211274 86027 layer_factory.hpp:77] Creating layer layer_64_1_bn2
I0114 23:30:32.211282 86027 net.cpp:86] Creating Layer layer_64_1_bn2
I0114 23:30:32.211285 86027 net.cpp:408] layer_64_1_bn2 <- layer_64_1_conv1
I0114 23:30:32.211295 86027 net.cpp:369] layer_64_1_bn2 -> layer_64_1_conv1 (in-place)
I0114 23:30:32.211325 86027 net.cpp:124] Setting up layer_64_1_bn2
I0114 23:30:32.211350 86027 net.cpp:131] Top shape: 7 64 56 56 (1404928)
I0114 23:30:32.211838 86027 net.cpp:139] Memory required for data: 130658388
I0114 23:30:32.211864 86027 layer_factory.hpp:77] Creating layer layer_64_1_scale2
I0114 23:30:32.211870 86027 net.cpp:86] Creating Layer layer_64_1_scale2
I0114 23:30:32.211874 86027 net.cpp:408] layer_64_1_scale2 <- layer_64_1_conv1
I0114 23:30:32.211897 86027 net.cpp:369] layer_64_1_scale2 -> layer_64_1_conv1 (in-place)
I0114 23:30:32.211915 86027 layer_factory.hpp:77] Creating layer layer_64_1_scale2
I0114 23:30:32.211962 86027 net.cpp:124] Setting up layer_64_1_scale2
I0114 23:30:32.212014 86027 net.cpp:131] Top shape: 7 64 56 56 (1404928)
I0114 23:30:32.212019 86027 net.cpp:139] Memory required for data: 136278100
I0114 23:30:32.212028 86027 layer_factory.hpp:77] Creating layer layer_64_1_relu2
I0114 23:30:32.212059 86027 net.cpp:86] Creating Layer layer_64_1_relu2
I0114 23:30:32.212085 86027 net.cpp:408] layer_64_1_relu2 <- layer_64_1_conv1
I0114 23:30:32.212122 86027 net.cpp:369] layer_64_1_relu2 -> layer_64_1_conv1 (in-place)
I0114 23:30:32.212348 86027 net.cpp:124] Setting up layer_64_1_relu2
I0114 23:30:32.212355 86027 net.cpp:131] Top shape: 7 64 56 56 (1404928)
I0114 23:30:32.212357 86027 net.cpp:139] Memory required for data: 141897812
I0114 23:30:32.212360 86027 layer_factory.hpp:77] Creating layer layer_64_1_conv2
I0114 23:30:32.212383 86027 net.cpp:86] Creating Layer layer_64_1_conv2
I0114 23:30:32.212388 86027 net.cpp:408] layer_64_1_conv2 <- layer_64_1_conv1
I0114 23:30:32.212393 86027 net.cpp:382] layer_64_1_conv2 -> layer_64_1_conv2
I0114 23:30:32.212708 86027 net.cpp:124] Setting up layer_64_1_conv2
I0114 23:30:32.212725 86027 net.cpp:131] Top shape: 7 64 56 56 (1404928)
I0114 23:30:32.212729 86027 net.cpp:139] Memory required for data: 147517524
I0114 23:30:32.212749 86027 layer_factory.hpp:77] Creating layer layer_64_1_sum
I0114 23:30:32.212764 86027 net.cpp:86] Creating Layer layer_64_1_sum
I0114 23:30:32.212787 86027 net.cpp:408] layer_64_1_sum <- layer_64_1_conv2
I0114 23:30:32.213181 86027 net.cpp:408] layer_64_1_sum <- conv1_pool_conv1_pool_0_split_1
I0114 23:30:32.213219 86027 net.cpp:382] layer_64_1_sum -> layer_64_1_sum
I0114 23:30:32.213265 86027 net.cpp:124] Setting up layer_64_1_sum
I0114 23:30:32.213274 86027 net.cpp:131] Top shape: 7 64 56 56 (1404928)
I0114 23:30:32.213279 86027 net.cpp:139] Memory required for data: 153137236
I0114 23:30:32.213284 86027 layer_factory.hpp:77] Creating layer layer_128_1_bn1
I0114 23:30:32.213300 86027 net.cpp:86] Creating Layer layer_128_1_bn1
I0114 23:30:32.213331 86027 net.cpp:408] layer_128_1_bn1 <- layer_64_1_sum
I0114 23:30:32.213368 86027 net.cpp:382] layer_128_1_bn1 -> layer_128_1_bn1
I0114 23:30:32.213440 86027 net.cpp:124] Setting up layer_128_1_bn1
I0114 23:30:32.213462 86027 net.cpp:131] Top shape: 7 64 56 56 (1404928)
I0114 23:30:32.213467 86027 net.cpp:139] Memory required for data: 158756948
I0114 23:30:32.213474 86027 layer_factory.hpp:77] Creating layer layer_128_1_scale1
I0114 23:30:32.213495 86027 net.cpp:86] Creating Layer layer_128_1_scale1
I0114 23:30:32.213968 86027 net.cpp:408] layer_128_1_scale1 <- layer_128_1_bn1
I0114 23:30:32.213981 86027 net.cpp:369] layer_128_1_scale1 -> layer_128_1_bn1 (in-place)
I0114 23:30:32.213994 86027 layer_factory.hpp:77] Creating layer layer_128_1_scale1
I0114 23:30:32.214025 86027 net.cpp:124] Setting up layer_128_1_scale1
I0114 23:30:32.214046 86027 net.cpp:131] Top shape: 7 64 56 56 (1404928)
I0114 23:30:32.214066 86027 net.cpp:139] Memory required for data: 164376660
I0114 23:30:32.214087 86027 layer_factory.hpp:77] Creating layer layer_128_1_relu1
I0114 23:30:32.214093 86027 net.cpp:86] Creating Layer layer_128_1_relu1
I0114 23:30:32.214102 86027 net.cpp:408] layer_128_1_relu1 <- layer_128_1_bn1
I0114 23:30:32.214126 86027 net.cpp:369] layer_128_1_relu1 -> layer_128_1_bn1 (in-place)
I0114 23:30:32.214140 86027 net.cpp:124] Setting up layer_128_1_relu1
I0114 23:30:32.214192 86027 net.cpp:131] Top shape: 7 64 56 56 (1404928)
I0114 23:30:32.214215 86027 net.cpp:139] Memory required for data: 169996372
I0114 23:30:32.214624 86027 layer_factory.hpp:77] Creating layer layer_128_1_bn1_layer_128_1_relu1_0_split
I0114 23:30:32.214648 86027 net.cpp:86] Creating Layer layer_128_1_bn1_layer_128_1_relu1_0_split
I0114 23:30:32.214663 86027 net.cpp:408] layer_128_1_bn1_layer_128_1_relu1_0_split <- layer_128_1_bn1
I0114 23:30:32.214678 86027 net.cpp:382] layer_128_1_bn1_layer_128_1_relu1_0_split -> layer_128_1_bn1_layer_128_1_relu1_0_split_0
I0114 23:30:32.214686 86027 net.cpp:382] layer_128_1_bn1_layer_128_1_relu1_0_split -> layer_128_1_bn1_layer_128_1_relu1_0_split_1
I0114 23:30:32.214696 86027 net.cpp:124] Setting up layer_128_1_bn1_layer_128_1_relu1_0_split
I0114 23:30:32.214702 86027 net.cpp:131] Top shape: 7 64 56 56 (1404928)
I0114 23:30:32.214707 86027 net.cpp:131] Top shape: 7 64 56 56 (1404928)
I0114 23:30:32.214709 86027 net.cpp:139] Memory required for data: 181235796
I0114 23:30:32.214723 86027 layer_factory.hpp:77] Creating layer layer_128_1_conv1
I0114 23:30:32.214746 86027 net.cpp:86] Creating Layer layer_128_1_conv1
I0114 23:30:32.215366 86027 net.cpp:408] layer_128_1_conv1 <- layer_128_1_bn1_layer_128_1_relu1_0_split_0
I0114 23:30:32.215392 86027 net.cpp:382] layer_128_1_conv1 -> layer_128_1_conv1
I0114 23:30:32.216024 86027 net.cpp:124] Setting up layer_128_1_conv1
I0114 23:30:32.216043 86027 net.cpp:131] Top shape: 7 128 28 28 (702464)
I0114 23:30:32.216048 86027 net.cpp:139] Memory required for data: 184045652
I0114 23:30:32.216078 86027 layer_factory.hpp:77] Creating layer layer_128_1_bn2
I0114 23:30:32.216089 86027 net.cpp:86] Creating Layer layer_128_1_bn2
I0114 23:30:32.216092 86027 net.cpp:408] layer_128_1_bn2 <- layer_128_1_conv1
I0114 23:30:32.216117 86027 net.cpp:369] layer_128_1_bn2 -> layer_128_1_conv1 (in-place)
I0114 23:30:32.216153 86027 net.cpp:124] Setting up layer_128_1_bn2
I0114 23:30:32.216207 86027 net.cpp:131] Top shape: 7 128 28 28 (702464)
I0114 23:30:32.216224 86027 net.cpp:139] Memory required for data: 186855508
I0114 23:30:32.216230 86027 layer_factory.hpp:77] Creating layer layer_128_1_scale2
I0114 23:30:32.216486 86027 net.cpp:86] Creating Layer layer_128_1_scale2
I0114 23:30:32.216493 86027 net.cpp:408] layer_128_1_scale2 <- layer_128_1_conv1
I0114 23:30:32.216511 86027 net.cpp:369] layer_128_1_scale2 -> layer_128_1_conv1 (in-place)
I0114 23:30:32.216540 86027 layer_factory.hpp:77] Creating layer layer_128_1_scale2
I0114 23:30:32.216572 86027 net.cpp:124] Setting up layer_128_1_scale2
I0114 23:30:32.216590 86027 net.cpp:131] Top shape: 7 128 28 28 (702464)
I0114 23:30:32.216605 86027 net.cpp:139] Memory required for data: 189665364
I0114 23:30:32.216612 86027 layer_factory.hpp:77] Creating layer layer_128_1_relu2
I0114 23:30:32.216619 86027 net.cpp:86] Creating Layer layer_128_1_relu2
I0114 23:30:32.216621 86027 net.cpp:408] layer_128_1_relu2 <- layer_128_1_conv1
I0114 23:30:32.216625 86027 net.cpp:369] layer_128_1_relu2 -> layer_128_1_conv1 (in-place)
I0114 23:30:32.216630 86027 net.cpp:124] Setting up layer_128_1_relu2
I0114 23:30:32.216645 86027 net.cpp:131] Top shape: 7 128 28 28 (702464)
I0114 23:30:32.216814 86027 net.cpp:139] Memory required for data: 192475220
I0114 23:30:32.216820 86027 layer_factory.hpp:77] Creating layer layer_128_1_conv2
I0114 23:30:32.216830 86027 net.cpp:86] Creating Layer layer_128_1_conv2
I0114 23:30:32.216845 86027 net.cpp:408] layer_128_1_conv2 <- layer_128_1_conv1
I0114 23:30:32.216852 86027 net.cpp:382] layer_128_1_conv2 -> layer_128_1_conv2
I0114 23:30:32.218030 86027 net.cpp:124] Setting up layer_128_1_conv2
I0114 23:30:32.218086 86027 net.cpp:131] Top shape: 7 128 28 28 (702464)
I0114 23:30:32.218107 86027 net.cpp:139] Memory required for data: 195285076
I0114 23:30:32.218132 86027 layer_factory.hpp:77] Creating layer layer_128_1_conv_expand
I0114 23:30:32.218163 86027 net.cpp:86] Creating Layer layer_128_1_conv_expand
I0114 23:30:32.218189 86027 net.cpp:408] layer_128_1_conv_expand <- layer_128_1_bn1_layer_128_1_relu1_0_split_1
I0114 23:30:32.218245 86027 net.cpp:382] layer_128_1_conv_expand -> layer_128_1_conv_expand
I0114 23:30:32.218684 86027 net.cpp:124] Setting up layer_128_1_conv_expand
I0114 23:30:32.218704 86027 net.cpp:131] Top shape: 7 128 28 28 (702464)
I0114 23:30:32.218709 86027 net.cpp:139] Memory required for data: 198094932
I0114 23:30:32.218713 86027 layer_factory.hpp:77] Creating layer layer_128_1_sum
I0114 23:30:32.218720 86027 net.cpp:86] Creating Layer layer_128_1_sum
I0114 23:30:32.218737 86027 net.cpp:408] layer_128_1_sum <- layer_128_1_conv2
I0114 23:30:32.218753 86027 net.cpp:408] layer_128_1_sum <- layer_128_1_conv_expand
I0114 23:30:32.218760 86027 net.cpp:382] layer_128_1_sum -> layer_128_1_sum
I0114 23:30:32.218767 86027 net.cpp:124] Setting up layer_128_1_sum
I0114 23:30:32.218786 86027 net.cpp:131] Top shape: 7 128 28 28 (702464)
I0114 23:30:32.218791 86027 net.cpp:139] Memory required for data: 200904788
I0114 23:30:32.218793 86027 layer_factory.hpp:77] Creating layer layer_256_1_bn1
I0114 23:30:32.218798 86027 net.cpp:86] Creating Layer layer_256_1_bn1
I0114 23:30:32.218802 86027 net.cpp:408] layer_256_1_bn1 <- layer_128_1_sum
I0114 23:30:32.219216 86027 net.cpp:382] layer_256_1_bn1 -> layer_256_1_bn1
I0114 23:30:32.219285 86027 net.cpp:124] Setting up layer_256_1_bn1
I0114 23:30:32.219337 86027 net.cpp:131] Top shape: 7 128 28 28 (702464)
I0114 23:30:32.219344 86027 net.cpp:139] Memory required for data: 203714644
I0114 23:30:32.219411 86027 layer_factory.hpp:77] Creating layer layer_256_1_scale1
I0114 23:30:32.219465 86027 net.cpp:86] Creating Layer layer_256_1_scale1
I0114 23:30:32.219475 86027 net.cpp:408] layer_256_1_scale1 <- layer_256_1_bn1
I0114 23:30:32.219528 86027 net.cpp:369] layer_256_1_scale1 -> layer_256_1_bn1 (in-place)
I0114 23:30:32.219563 86027 layer_factory.hpp:77] Creating layer layer_256_1_scale1
I0114 23:30:32.219635 86027 net.cpp:124] Setting up layer_256_1_scale1
I0114 23:30:32.219660 86027 net.cpp:131] Top shape: 7 128 28 28 (702464)
I0114 23:30:32.219681 86027 net.cpp:139] Memory required for data: 206524500
I0114 23:30:32.219688 86027 layer_factory.hpp:77] Creating layer layer_256_1_relu1
I0114 23:30:32.219893 86027 net.cpp:86] Creating Layer layer_256_1_relu1
I0114 23:30:32.219900 86027 net.cpp:408] layer_256_1_relu1 <- layer_256_1_bn1
I0114 23:30:32.219936 86027 net.cpp:369] layer_256_1_relu1 -> layer_256_1_bn1 (in-place)
I0114 23:30:32.219966 86027 net.cpp:124] Setting up layer_256_1_relu1
I0114 23:30:32.219990 86027 net.cpp:131] Top shape: 7 128 28 28 (702464)
I0114 23:30:32.220007 86027 net.cpp:139] Memory required for data: 209334356
I0114 23:30:32.220031 86027 layer_factory.hpp:77] Creating layer layer_256_1_bn1_layer_256_1_relu1_0_split
I0114 23:30:32.220052 86027 net.cpp:86] Creating Layer layer_256_1_bn1_layer_256_1_relu1_0_split
I0114 23:30:32.220057 86027 net.cpp:408] layer_256_1_bn1_layer_256_1_relu1_0_split <- layer_256_1_bn1
I0114 23:30:32.220067 86027 net.cpp:382] layer_256_1_bn1_layer_256_1_relu1_0_split -> layer_256_1_bn1_layer_256_1_relu1_0_split_0
I0114 23:30:32.220077 86027 net.cpp:382] layer_256_1_bn1_layer_256_1_relu1_0_split -> layer_256_1_bn1_layer_256_1_relu1_0_split_1
I0114 23:30:32.220310 86027 net.cpp:124] Setting up layer_256_1_bn1_layer_256_1_relu1_0_split
I0114 23:30:32.220320 86027 net.cpp:131] Top shape: 7 128 28 28 (702464)
I0114 23:30:32.220324 86027 net.cpp:131] Top shape: 7 128 28 28 (702464)
I0114 23:30:32.220327 86027 net.cpp:139] Memory required for data: 214954068
I0114 23:30:32.220355 86027 layer_factory.hpp:77] Creating layer layer_256_1_conv1
I0114 23:30:32.220378 86027 net.cpp:86] Creating Layer layer_256_1_conv1
I0114 23:30:32.220403 86027 net.cpp:408] layer_256_1_conv1 <- layer_256_1_bn1_layer_256_1_relu1_0_split_0
I0114 23:30:32.220430 86027 net.cpp:382] layer_256_1_conv1 -> layer_256_1_conv1
I0114 23:30:32.223389 86027 net.cpp:124] Setting up layer_256_1_conv1
I0114 23:30:32.223433 86027 net.cpp:131] Top shape: 7 256 14 14 (351232)
I0114 23:30:32.223436 86027 net.cpp:139] Memory required for data: 216358996
I0114 23:30:32.223443 86027 layer_factory.hpp:77] Creating layer layer_256_1_bn2
I0114 23:30:32.223479 86027 net.cpp:86] Creating Layer layer_256_1_bn2
I0114 23:30:32.223819 86027 net.cpp:408] layer_256_1_bn2 <- layer_256_1_conv1
I0114 23:30:32.223829 86027 net.cpp:369] layer_256_1_bn2 -> layer_256_1_conv1 (in-place)
I0114 23:30:32.223848 86027 net.cpp:124] Setting up layer_256_1_bn2
I0114 23:30:32.223855 86027 net.cpp:131] Top shape: 7 256 14 14 (351232)
I0114 23:30:32.223858 86027 net.cpp:139] Memory required for data: 217763924
I0114 23:30:32.223863 86027 layer_factory.hpp:77] Creating layer layer_256_1_scale2
I0114 23:30:32.223872 86027 net.cpp:86] Creating Layer layer_256_1_scale2
I0114 23:30:32.223875 86027 net.cpp:408] layer_256_1_scale2 <- layer_256_1_conv1
I0114 23:30:32.223878 86027 net.cpp:369] layer_256_1_scale2 -> layer_256_1_conv1 (in-place)
I0114 23:30:32.223891 86027 layer_factory.hpp:77] Creating layer layer_256_1_scale2
I0114 23:30:32.223920 86027 net.cpp:124] Setting up layer_256_1_scale2
I0114 23:30:32.223928 86027 net.cpp:131] Top shape: 7 256 14 14 (351232)
I0114 23:30:32.223930 86027 net.cpp:139] Memory required for data: 219168852
I0114 23:30:32.224295 86027 layer_factory.hpp:77] Creating layer layer_256_1_relu2
I0114 23:30:32.224304 86027 net.cpp:86] Creating Layer layer_256_1_relu2
I0114 23:30:32.224308 86027 net.cpp:408] layer_256_1_relu2 <- layer_256_1_conv1
I0114 23:30:32.224316 86027 net.cpp:369] layer_256_1_relu2 -> layer_256_1_conv1 (in-place)
I0114 23:30:32.224321 86027 net.cpp:124] Setting up layer_256_1_relu2
I0114 23:30:32.224357 86027 net.cpp:131] Top shape: 7 256 14 14 (351232)
I0114 23:30:32.224365 86027 net.cpp:139] Memory required for data: 220573780
I0114 23:30:32.224371 86027 layer_factory.hpp:77] Creating layer layer_256_1_conv2
I0114 23:30:32.224395 86027 net.cpp:86] Creating Layer layer_256_1_conv2
I0114 23:30:32.224428 86027 net.cpp:408] layer_256_1_conv2 <- layer_256_1_conv1
I0114 23:30:32.224464 86027 net.cpp:382] layer_256_1_conv2 -> layer_256_1_conv2
I0114 23:30:32.229360 86027 net.cpp:124] Setting up layer_256_1_conv2
I0114 23:30:32.229399 86027 net.cpp:131] Top shape: 7 256 14 14 (351232)
I0114 23:30:32.229624 86027 net.cpp:139] Memory required for data: 221978708
I0114 23:30:32.229635 86027 layer_factory.hpp:77] Creating layer layer_256_1_conv_expand
I0114 23:30:32.229646 86027 net.cpp:86] Creating Layer layer_256_1_conv_expand
I0114 23:30:32.229650 86027 net.cpp:408] layer_256_1_conv_expand <- layer_256_1_bn1_layer_256_1_relu1_0_split_1
I0114 23:30:32.229657 86027 net.cpp:382] layer_256_1_conv_expand -> layer_256_1_conv_expand
I0114 23:30:32.230008 86027 net.cpp:124] Setting up layer_256_1_conv_expand
I0114 23:30:32.230041 86027 net.cpp:131] Top shape: 7 256 14 14 (351232)
I0114 23:30:32.230044 86027 net.cpp:139] Memory required for data: 223383636
I0114 23:30:32.230048 86027 layer_factory.hpp:77] Creating layer layer_256_1_sum
I0114 23:30:32.230056 86027 net.cpp:86] Creating Layer layer_256_1_sum
I0114 23:30:32.230088 86027 net.cpp:408] layer_256_1_sum <- layer_256_1_conv2
I0114 23:30:32.230113 86027 net.cpp:408] layer_256_1_sum <- layer_256_1_conv_expand
I0114 23:30:32.230136 86027 net.cpp:382] layer_256_1_sum -> layer_256_1_sum
I0114 23:30:32.230502 86027 net.cpp:124] Setting up layer_256_1_sum
I0114 23:30:32.230509 86027 net.cpp:131] Top shape: 7 256 14 14 (351232)
I0114 23:30:32.230511 86027 net.cpp:139] Memory required for data: 224788564
I0114 23:30:32.230515 86027 layer_factory.hpp:77] Creating layer layer_512_1_bn1
I0114 23:30:32.230523 86027 net.cpp:86] Creating Layer layer_512_1_bn1
I0114 23:30:32.230525 86027 net.cpp:408] layer_512_1_bn1 <- layer_256_1_sum
I0114 23:30:32.230530 86027 net.cpp:382] layer_512_1_bn1 -> layer_512_1_bn1
I0114 23:30:32.230557 86027 net.cpp:124] Setting up layer_512_1_bn1
I0114 23:30:32.230608 86027 net.cpp:131] Top shape: 7 256 14 14 (351232)
I0114 23:30:32.230629 86027 net.cpp:139] Memory required for data: 226193492
I0114 23:30:32.230634 86027 layer_factory.hpp:77] Creating layer layer_512_1_scale1
I0114 23:30:32.230643 86027 net.cpp:86] Creating Layer layer_512_1_scale1
I0114 23:30:32.230657 86027 net.cpp:408] layer_512_1_scale1 <- layer_512_1_bn1
I0114 23:30:32.230866 86027 net.cpp:369] layer_512_1_scale1 -> layer_512_1_bn1 (in-place)
I0114 23:30:32.230881 86027 layer_factory.hpp:77] Creating layer layer_512_1_scale1
I0114 23:30:32.230895 86027 net.cpp:124] Setting up layer_512_1_scale1
I0114 23:30:32.230913 86027 net.cpp:131] Top shape: 7 256 14 14 (351232)
I0114 23:30:32.230950 86027 net.cpp:139] Memory required for data: 227598420
I0114 23:30:32.230969 86027 layer_factory.hpp:77] Creating layer layer_512_1_relu1
I0114 23:30:32.230975 86027 net.cpp:86] Creating Layer layer_512_1_relu1
I0114 23:30:32.230978 86027 net.cpp:408] layer_512_1_relu1 <- layer_512_1_bn1
I0114 23:30:32.230983 86027 net.cpp:369] layer_512_1_relu1 -> layer_512_1_bn1 (in-place)
I0114 23:30:32.230988 86027 net.cpp:124] Setting up layer_512_1_relu1
I0114 23:30:32.230991 86027 net.cpp:131] Top shape: 7 256 14 14 (351232)
I0114 23:30:32.230993 86027 net.cpp:139] Memory required for data: 229003348
I0114 23:30:32.230995 86027 layer_factory.hpp:77] Creating layer layer_512_1_bn1_layer_512_1_relu1_0_split
I0114 23:30:32.231465 86027 net.cpp:86] Creating Layer layer_512_1_bn1_layer_512_1_relu1_0_split
I0114 23:30:32.231472 86027 net.cpp:408] layer_512_1_bn1_layer_512_1_relu1_0_split <- layer_512_1_bn1
I0114 23:30:32.231480 86027 net.cpp:382] layer_512_1_bn1_layer_512_1_relu1_0_split -> layer_512_1_bn1_layer_512_1_relu1_0_split_0
I0114 23:30:32.231487 86027 net.cpp:382] layer_512_1_bn1_layer_512_1_relu1_0_split -> layer_512_1_bn1_layer_512_1_relu1_0_split_1
I0114 23:30:32.231492 86027 net.cpp:124] Setting up layer_512_1_bn1_layer_512_1_relu1_0_split
I0114 23:30:32.231495 86027 net.cpp:131] Top shape: 7 256 14 14 (351232)
I0114 23:30:32.231498 86027 net.cpp:131] Top shape: 7 256 14 14 (351232)
I0114 23:30:32.231500 86027 net.cpp:139] Memory required for data: 231813204
I0114 23:30:32.231503 86027 layer_factory.hpp:77] Creating layer layer_512_1_conv1
I0114 23:30:32.231510 86027 net.cpp:86] Creating Layer layer_512_1_conv1
I0114 23:30:32.231513 86027 net.cpp:408] layer_512_1_conv1 <- layer_512_1_bn1_layer_512_1_relu1_0_split_0
I0114 23:30:32.231875 86027 net.cpp:382] layer_512_1_conv1 -> layer_512_1_conv1
I0114 23:30:32.242303 86027 net.cpp:124] Setting up layer_512_1_conv1
I0114 23:30:32.242362 86027 net.cpp:131] Top shape: 7 512 7 7 (175616)
I0114 23:30:32.242367 86027 net.cpp:139] Memory required for data: 232515668
I0114 23:30:32.242375 86027 layer_factory.hpp:77] Creating layer layer_512_1_bn2
I0114 23:30:32.242386 86027 net.cpp:86] Creating Layer layer_512_1_bn2
I0114 23:30:32.242408 86027 net.cpp:408] layer_512_1_bn2 <- layer_512_1_conv1
I0114 23:30:32.242417 86027 net.cpp:369] layer_512_1_bn2 -> layer_512_1_conv1 (in-place)
I0114 23:30:32.242437 86027 net.cpp:124] Setting up layer_512_1_bn2
I0114 23:30:32.242442 86027 net.cpp:131] Top shape: 7 512 7 7 (175616)
I0114 23:30:32.242458 86027 net.cpp:139] Memory required for data: 233218132
I0114 23:30:32.242465 86027 layer_factory.hpp:77] Creating layer layer_512_1_scale2
I0114 23:30:32.242487 86027 net.cpp:86] Creating Layer layer_512_1_scale2
I0114 23:30:32.242830 86027 net.cpp:408] layer_512_1_scale2 <- layer_512_1_conv1
I0114 23:30:32.242853 86027 net.cpp:369] layer_512_1_scale2 -> layer_512_1_conv1 (in-place)
I0114 23:30:32.242883 86027 layer_factory.hpp:77] Creating layer layer_512_1_scale2
I0114 23:30:32.242913 86027 net.cpp:124] Setting up layer_512_1_scale2
I0114 23:30:32.242931 86027 net.cpp:131] Top shape: 7 512 7 7 (175616)
I0114 23:30:32.242933 86027 net.cpp:139] Memory required for data: 233920596
I0114 23:30:32.242938 86027 layer_factory.hpp:77] Creating layer layer_512_1_relu2
I0114 23:30:32.242943 86027 net.cpp:86] Creating Layer layer_512_1_relu2
I0114 23:30:32.242945 86027 net.cpp:408] layer_512_1_relu2 <- layer_512_1_conv1
I0114 23:30:32.242964 86027 net.cpp:369] layer_512_1_relu2 -> layer_512_1_conv1 (in-place)
I0114 23:30:32.242969 86027 net.cpp:124] Setting up layer_512_1_relu2
I0114 23:30:32.242972 86027 net.cpp:131] Top shape: 7 512 7 7 (175616)
I0114 23:30:32.242976 86027 net.cpp:139] Memory required for data: 234623060
I0114 23:30:32.243588 86027 layer_factory.hpp:77] Creating layer layer_512_1_conv2
I0114 23:30:32.243604 86027 net.cpp:86] Creating Layer layer_512_1_conv2
I0114 23:30:32.243621 86027 net.cpp:408] layer_512_1_conv2 <- layer_512_1_conv1
I0114 23:30:32.243626 86027 net.cpp:382] layer_512_1_conv2 -> layer_512_1_conv2
I0114 23:30:32.263864 86027 net.cpp:124] Setting up layer_512_1_conv2
I0114 23:30:32.263912 86027 net.cpp:131] Top shape: 7 512 7 7 (175616)
I0114 23:30:32.263916 86027 net.cpp:139] Memory required for data: 235325524
I0114 23:30:32.263923 86027 layer_factory.hpp:77] Creating layer layer_512_1_conv_expand
I0114 23:30:32.263937 86027 net.cpp:86] Creating Layer layer_512_1_conv_expand
I0114 23:30:32.263942 86027 net.cpp:408] layer_512_1_conv_expand <- layer_512_1_bn1_layer_512_1_relu1_0_split_1
I0114 23:30:32.263948 86027 net.cpp:382] layer_512_1_conv_expand -> layer_512_1_conv_expand
I0114 23:30:32.265071 86027 net.cpp:124] Setting up layer_512_1_conv_expand
I0114 23:30:32.265091 86027 net.cpp:131] Top shape: 7 512 7 7 (175616)
I0114 23:30:32.265355 86027 net.cpp:139] Memory required for data: 236027988
I0114 23:30:32.265364 86027 layer_factory.hpp:77] Creating layer layer_512_1_sum
I0114 23:30:32.265372 86027 net.cpp:86] Creating Layer layer_512_1_sum
I0114 23:30:32.265377 86027 net.cpp:408] layer_512_1_sum <- layer_512_1_conv2
I0114 23:30:32.265380 86027 net.cpp:408] layer_512_1_sum <- layer_512_1_conv_expand
I0114 23:30:32.265383 86027 net.cpp:382] layer_512_1_sum -> layer_512_1_sum
I0114 23:30:32.265398 86027 net.cpp:124] Setting up layer_512_1_sum
I0114 23:30:32.265420 86027 net.cpp:131] Top shape: 7 512 7 7 (175616)
I0114 23:30:32.265424 86027 net.cpp:139] Memory required for data: 236730452
I0114 23:30:32.265427 86027 layer_factory.hpp:77] Creating layer last_bn
I0114 23:30:32.265457 86027 net.cpp:86] Creating Layer last_bn
I0114 23:30:32.265486 86027 net.cpp:408] last_bn <- layer_512_1_sum
I0114 23:30:32.265508 86027 net.cpp:369] last_bn -> layer_512_1_sum (in-place)
I0114 23:30:32.265522 86027 net.cpp:124] Setting up last_bn
I0114 23:30:32.265753 86027 net.cpp:131] Top shape: 7 512 7 7 (175616)
I0114 23:30:32.265758 86027 net.cpp:139] Memory required for data: 237432916
I0114 23:30:32.265764 86027 layer_factory.hpp:77] Creating layer last_scale
I0114 23:30:32.265811 86027 net.cpp:86] Creating Layer last_scale
I0114 23:30:32.265830 86027 net.cpp:408] last_scale <- layer_512_1_sum
I0114 23:30:32.265836 86027 net.cpp:369] last_scale -> layer_512_1_sum (in-place)
I0114 23:30:32.265851 86027 layer_factory.hpp:77] Creating layer last_scale
I0114 23:30:32.265892 86027 net.cpp:124] Setting up last_scale
I0114 23:30:32.265913 86027 net.cpp:131] Top shape: 7 512 7 7 (175616)
I0114 23:30:32.265915 86027 net.cpp:139] Memory required for data: 238135380
I0114 23:30:32.265933 86027 layer_factory.hpp:77] Creating layer last_relu
I0114 23:30:32.265936 86027 net.cpp:86] Creating Layer last_relu
I0114 23:30:32.265939 86027 net.cpp:408] last_relu <- layer_512_1_sum
I0114 23:30:32.265944 86027 net.cpp:369] last_relu -> layer_512_1_sum (in-place)
I0114 23:30:32.266166 86027 net.cpp:124] Setting up last_relu
I0114 23:30:32.266173 86027 net.cpp:131] Top shape: 7 512 7 7 (175616)
I0114 23:30:32.266176 86027 net.cpp:139] Memory required for data: 238837844
I0114 23:30:32.266178 86027 layer_factory.hpp:77] Creating layer global_pool
I0114 23:30:32.266185 86027 net.cpp:86] Creating Layer global_pool
I0114 23:30:32.266186 86027 net.cpp:408] global_pool <- layer_512_1_sum
I0114 23:30:32.266191 86027 net.cpp:382] global_pool -> global_pool
I0114 23:30:32.266197 86027 net.cpp:124] Setting up global_pool
I0114 23:30:32.266214 86027 net.cpp:131] Top shape: 7 512 1 1 (3584)
I0114 23:30:32.266219 86027 net.cpp:139] Memory required for data: 238852180
I0114 23:30:32.266222 86027 layer_factory.hpp:77] Creating layer global_pool_drop
I0114 23:30:32.266249 86027 net.cpp:86] Creating Layer global_pool_drop
I0114 23:30:32.266254 86027 net.cpp:408] global_pool_drop <- global_pool
I0114 23:30:32.266258 86027 net.cpp:369] global_pool_drop -> global_pool (in-place)
I0114 23:30:32.266463 86027 net.cpp:124] Setting up global_pool_drop
I0114 23:30:32.266469 86027 net.cpp:131] Top shape: 7 512 1 1 (3584)
I0114 23:30:32.266472 86027 net.cpp:139] Memory required for data: 238866516
I0114 23:30:32.266475 86027 layer_factory.hpp:77] Creating layer fc_food
I0114 23:30:32.266484 86027 net.cpp:86] Creating Layer fc_food
I0114 23:30:32.266485 86027 net.cpp:408] fc_food <- global_pool
I0114 23:30:32.266490 86027 net.cpp:382] fc_food -> fc_food
I0114 23:30:32.266500 86027 net.cpp:124] Setting up fc_food
I0114 23:30:32.266518 86027 net.cpp:131] Top shape: 7 7 (49)
I0114 23:30:32.266523 86027 net.cpp:139] Memory required for data: 238866712
I0114 23:30:32.266561 86027 layer_factory.hpp:77] Creating layer fc_food_fc_food_0_split
I0114 23:30:32.266577 86027 net.cpp:86] Creating Layer fc_food_fc_food_0_split
I0114 23:30:32.266582 86027 net.cpp:408] fc_food_fc_food_0_split <- fc_food
I0114 23:30:32.266588 86027 net.cpp:382] fc_food_fc_food_0_split -> fc_food_fc_food_0_split_0
I0114 23:30:32.266772 86027 net.cpp:382] fc_food_fc_food_0_split -> fc_food_fc_food_0_split_1
I0114 23:30:32.266782 86027 net.cpp:124] Setting up fc_food_fc_food_0_split
I0114 23:30:32.266785 86027 net.cpp:131] Top shape: 7 7 (49)
I0114 23:30:32.266788 86027 net.cpp:131] Top shape: 7 7 (49)
I0114 23:30:32.266790 86027 net.cpp:139] Memory required for data: 238867104
I0114 23:30:32.266793 86027 layer_factory.hpp:77] Creating layer loss
I0114 23:30:32.266796 86027 net.cpp:86] Creating Layer loss
I0114 23:30:32.266798 86027 net.cpp:408] loss <- fc_food_fc_food_0_split_0
I0114 23:30:32.266816 86027 net.cpp:408] loss <- label_data_1_split_0
I0114 23:30:32.266855 86027 net.cpp:382] loss -> loss
…
