…
I0109 22:55:08.745532 60247 net.cpp:296] The NetState phase (0) differed from the phase (1) specified by a rule in layer mnist
I0109 22:55:08.745546 60247 net.cpp:296] The NetState phase (0) differed from the phase (1) specified by a rule in layer accuracy
I0109 22:55:08.745623 60247 net.cpp:53] Initializing net from parameters: 
name: "LeNet"
state {
  phase: TRAIN
  level: 0
  stage: ""
}
layer {
  name: "mnist"
  type: "Data"
  top: "data"
  top: "label"
  include {
    phase: TRAIN
  }
  transform_param {
    scale: 0.00390625
    mean_value: 128
  }
  data_param {
    source: "train_aug_lmdb"
    batch_size: 50
    backend: LMDB
  }
}
layer {
  name: "conv1"
  type: "Convolution"
  bottom: "data"
  top: "conv1"
  param {
    lr_mult: 1
  }
  param {
    lr_mult: 2
  }
  convolution_param {
    num_output: 20
    kernel_size: 5
    stride: 1
    weight_filler {
      type: "xavier"
    }
    bias_filler {
      type: "constant"
    }
  }
}
layer {
  name: "pool1"
  type: "Pooling"
  bottom: "conv1"
  top: "pool1"
  pooling_param {
    pool: MAX
    kernel_size: 2
    stride: 2
  }
}
layer {
  name: "conv2"
  type: "Convolution"
  bottom: "pool1"
  top: "conv2"
  param {
    lr_mult: 1
  }
  param {
    lr_mult: 2
  }
  convolution_param {
    num_output: 50
    kernel_size: 5
    stride: 1
    weight_filler {
      type: "xavier"
    }
    bias_filler {
      type: "constant"
    }
  }
}
layer {
  name: "pool2"
  type: "Pooling"
  bottom: "conv2"
  top: "pool2"
  pooling_param {
    pool: MAX
    kernel_size: 2
    stride: 2
  }
}
layer {
  name: "ip1"
  type: "InnerProduct"
  bottom: "pool2"
  top: "ip1"
  param {
    lr_mult: 1
  }
  param {
    lr_mult: 2
  }
  inner_product_param {
    num_output: 500
    weight_filler {
      type: "xavier"
    }
    bias_filler {
      type: "constant"
    }
  }
}
layer {
  name: "relu1"
  type: "ReLU"
  bottom: "ip1"
  top: "ip1"
}
layer {
  name: "ip2"
  type: "InnerProduct"
  bottom: "ip1"
  top: "ip2"
  param {
    lr_mult: 1
  }
  param {
    lr_mult: 2
  }
  inner_product_param {
    num_output: 10
    weight_filler {
      type: "xavier"
    }
    bias_filler {
      type: "constant"
    }
  }
}
layer {
  name: "loss"
  type: "SoftmaxWithLoss"
  bottom: "ip2"
  bottom: "label"
  top: "loss"
}
I0109 22:55:08.746098 60247 layer_factory.hpp:77] Creating layer mnist
I0109 22:55:08.774554 60247 db_lmdb.cpp:35] Opened lmdb train_aug_lmdb
I0109 22:55:08.775609 60247 net.cpp:86] Creating Layer mnist
I0109 22:55:08.775630 60247 net.cpp:382] mnist -> data
I0109 22:55:08.775652 60247 net.cpp:382] mnist -> label
I0109 22:55:08.776190 60247 data_layer.cpp:45] output data size: 50,1,28,28
I0109 22:55:08.776351 60247 net.cpp:124] Setting up mnist
I0109 22:55:08.776366 60247 net.cpp:131] Top shape: 50 1 28 28 (39200)
I0109 22:55:08.776371 60247 net.cpp:131] Top shape: 50 (50)
I0109 22:55:08.776372 60247 net.cpp:139] Memory required for data: 157000
I0109 22:55:08.776378 60247 layer_factory.hpp:77] Creating layer conv1
I0109 22:55:08.776392 60247 net.cpp:86] Creating Layer conv1
I0109 22:55:08.776397 60247 net.cpp:408] conv1 <- data
I0109 22:55:08.776407 60247 net.cpp:382] conv1 -> conv1
I0109 22:55:08.776438 60247 net.cpp:124] Setting up conv1
I0109 22:55:08.776445 60247 net.cpp:131] Top shape: 50 20 24 24 (576000)
I0109 22:55:08.776448 60247 net.cpp:139] Memory required for data: 2461000
I0109 22:55:08.776456 60247 layer_factory.hpp:77] Creating layer pool1
I0109 22:55:08.776461 60247 net.cpp:86] Creating Layer pool1
I0109 22:55:08.776464 60247 net.cpp:408] pool1 <- conv1
I0109 22:55:08.776468 60247 net.cpp:382] pool1 -> pool1
I0109 22:55:08.778396 60247 net.cpp:124] Setting up pool1
I0109 22:55:08.778487 60247 net.cpp:131] Top shape: 50 20 12 12 (144000)
I0109 22:55:08.778519 60247 net.cpp:139] Memory required for data: 3037000
I0109 22:55:08.778528 60247 layer_factory.hpp:77] Creating layer conv2
I0109 22:55:08.778538 60247 net.cpp:86] Creating Layer conv2
I0109 22:55:08.778542 60247 net.cpp:408] conv2 <- pool1
I0109 22:55:08.778547 60247 net.cpp:382] conv2 -> conv2
I0109 22:55:08.778748 60247 net.cpp:124] Setting up conv2
I0109 22:55:08.778766 60247 net.cpp:131] Top shape: 50 50 8 8 (160000)
I0109 22:55:08.778771 60247 net.cpp:139] Memory required for data: 3677000
I0109 22:55:08.778779 60247 layer_factory.hpp:77] Creating layer pool2
I0109 22:55:08.778786 60247 net.cpp:86] Creating Layer pool2
I0109 22:55:08.778808 60247 net.cpp:408] pool2 <- conv2
I0109 22:55:08.778829 60247 net.cpp:382] pool2 -> pool2
I0109 22:55:08.778842 60247 net.cpp:124] Setting up pool2
I0109 22:55:08.778849 60247 net.cpp:131] Top shape: 50 50 4 4 (40000)
I0109 22:55:08.778964 60247 net.cpp:139] Memory required for data: 3837000
I0109 22:55:08.778968 60247 layer_factory.hpp:77] Creating layer ip1
I0109 22:55:08.778975 60247 net.cpp:86] Creating Layer ip1
I0109 22:55:08.778976 60247 net.cpp:408] ip1 <- pool2
I0109 22:55:08.778980 60247 net.cpp:382] ip1 -> ip1
I0109 22:55:08.781476 60247 net.cpp:124] Setting up ip1
I0109 22:55:08.781535 60247 net.cpp:131] Top shape: 50 500 (25000)
I0109 22:55:08.781553 60247 net.cpp:139] Memory required for data: 3937000
I0109 22:55:08.781564 60247 layer_factory.hpp:77] Creating layer relu1
I0109 22:55:08.781570 60247 net.cpp:86] Creating Layer relu1
I0109 22:55:08.781574 60247 net.cpp:408] relu1 <- ip1
I0109 22:55:08.781579 60247 net.cpp:369] relu1 -> ip1 (in-place)
I0109 22:55:08.781589 60247 net.cpp:124] Setting up relu1
I0109 22:55:08.781592 60247 net.cpp:131] Top shape: 50 500 (25000)
I0109 22:55:08.781596 60247 net.cpp:139] Memory required for data: 4037000
I0109 22:55:08.781600 60247 layer_factory.hpp:77] Creating layer ip2
I0109 22:55:08.781901 60247 net.cpp:86] Creating Layer ip2
I0109 22:55:08.781908 60247 net.cpp:408] ip2 <- ip1
I0109 22:55:08.781913 60247 net.cpp:382] ip2 -> ip2
I0109 22:55:08.781972 60247 net.cpp:124] Setting up ip2
I0109 22:55:08.781986 60247 net.cpp:131] Top shape: 50 10 (500)
I0109 22:55:08.781991 60247 net.cpp:139] Memory required for data: 4039000
I0109 22:55:08.781994 60247 layer_factory.hpp:77] Creating layer loss
I0109 22:55:08.782001 60247 net.cpp:86] Creating Layer loss
I0109 22:55:08.782004 60247 net.cpp:408] loss <- ip2
I0109 22:55:08.782007 60247 net.cpp:408] loss <- label
I0109 22:55:08.782013 60247 net.cpp:382] loss -> loss
I0109 22:55:08.782027 60247 layer_factory.hpp:77] Creating layer loss
…
I0109 22:55:08.783196 60247 solver.cpp:190] Creating test net (#0) specified by net file: lenet_train_val_aug.prototxt
I0109 22:55:08.783221 60247 net.cpp:296] The NetState phase (1) differed from the phase (0) specified by a rule in layer mnist
I0109 22:55:08.783668 60247 net.cpp:53] Initializing net from parameters: 
name: "LeNet"
state {
  phase: TEST
}
layer {
  name: "mnist"
  type: "Data"
  top: "data"
  top: "label"
  include {
    phase: TEST
  }
  transform_param {
    scale: 0.00390625
    mean_value: 128
  }
  data_param {
    source: "val_lmdb"
    batch_size: 100
    backend: LMDB
  }
}
layer {
  name: "conv1"
  type: "Convolution"
  bottom: "data"
  top: "conv1"
  param {
    lr_mult: 1
  }
  param {
    lr_mult: 2
  }
  convolution_param {
    num_output: 20
    kernel_size: 5
    stride: 1
    weight_filler {
      type: "xavier"
    }
    bias_filler {
      type: "constant"
    }
  }
}
layer {
  name: "pool1"
  type: "Pooling"
  bottom: "conv1"
  top: "pool1"
  pooling_param {
    pool: MAX
    kernel_size: 2
    stride: 2
  }
}
layer {
  name: "conv2"
  type: "Convolution"
  bottom: "pool1"
  top: "conv2"
  param {
    lr_mult: 1
  }
  param {
    lr_mult: 2
  }
  convolution_param {
    num_output: 50
    kernel_size: 5
    stride: 1
    weight_filler {
      type: "xavier"
    }
    bias_filler {
      type: "constant"
    }
  }
}
layer {
  name: "pool2"
  type: "Pooling"
  bottom: "conv2"
  top: "pool2"
  pooling_param {
    pool: MAX
    kernel_size: 2
    stride: 2
  }
}
layer {
  name: "ip1"
  type: "InnerProduct"
  bottom: "pool2"
  top: "ip1"
  param {
    lr_mult: 1
  }
  param {
    lr_mult: 2
  }
  inner_product_param {
    num_output: 500
    weight_filler {
      type: "xavier"
    }
    bias_filler {
      type: "constant"
    }
  }
}
layer {
  name: "relu1"
  type: "ReLU"
  bottom: "ip1"
  top: "ip1"
}
layer {
  name: "ip2"
  type: "InnerProduct"
  bottom: "ip1"
  top: "ip2"
  param {
    lr_mult: 1
  }
  param {
    lr_mult: 2
  }
  inner_product_param {
    num_output: 10
    weight_filler {
      type: "xavier"
    }
    bias_filler {
      type: "constant"
    }
  }
}
layer {
  name: "accuracy"
  type: "Accuracy"
  bottom: "ip2"
  bottom: "label"
  top: "accuracy"
  include {
    phase: TEST
  }
}
layer {
  name: "loss"
  type: "SoftmaxWithLoss"
  bottom: "ip2"
  bottom: "label"
  top: "loss"
}
I0109 22:55:08.784178 60247 layer_factory.hpp:77] Creating layer mnist
I0109 22:55:08.788892 60247 db_lmdb.cpp:35] Opened lmdb val_lmdb
I0109 22:55:08.791342 60247 net.cpp:86] Creating Layer mnist
I0109 22:55:08.791358 60247 net.cpp:382] mnist -> data
I0109 22:55:08.791370 60247 net.cpp:382] mnist -> label
I0109 22:55:08.791386 60247 data_layer.cpp:45] output data size: 100,1,28,28
I0109 22:55:08.791488 60247 net.cpp:124] Setting up mnist
I0109 22:55:08.791515 60247 net.cpp:131] Top shape: 100 1 28 28 (78400)
I0109 22:55:08.791519 60247 net.cpp:131] Top shape: 100 (100)
I0109 22:55:08.791522 60247 net.cpp:139] Memory required for data: 314000
I0109 22:55:08.791525 60247 layer_factory.hpp:77] Creating layer label_mnist_1_split
I0109 22:55:08.791532 60247 net.cpp:86] Creating Layer label_mnist_1_split
I0109 22:55:08.791534 60247 net.cpp:408] label_mnist_1_split <- label
I0109 22:55:08.791539 60247 net.cpp:382] label_mnist_1_split -> label_mnist_1_split_0
I0109 22:55:08.792156 60247 net.cpp:382] label_mnist_1_split -> label_mnist_1_split_1
I0109 22:55:08.792167 60247 net.cpp:124] Setting up label_mnist_1_split
I0109 22:55:08.792173 60247 net.cpp:131] Top shape: 100 (100)
I0109 22:55:08.792176 60247 net.cpp:131] Top shape: 100 (100)
I0109 22:55:08.792178 60247 net.cpp:139] Memory required for data: 314800
I0109 22:55:08.792181 60247 layer_factory.hpp:77] Creating layer conv1
I0109 22:55:08.792192 60247 net.cpp:86] Creating Layer conv1
I0109 22:55:08.792196 60247 net.cpp:408] conv1 <- data
I0109 22:55:08.792201 60247 net.cpp:382] conv1 -> conv1
I0109 22:55:08.792224 60247 net.cpp:124] Setting up conv1
I0109 22:55:08.792240 60247 net.cpp:131] Top shape: 100 20 24 24 (1152000)
I0109 22:55:08.792244 60247 net.cpp:139] Memory required for data: 4922800
I0109 22:55:08.792251 60247 layer_factory.hpp:77] Creating layer pool1
I0109 22:55:08.792258 60247 net.cpp:86] Creating Layer pool1
I0109 22:55:08.792260 60247 net.cpp:408] pool1 <- conv1
I0109 22:55:08.794957 60247 net.cpp:382] pool1 -> pool1
I0109 22:55:08.794968 60247 net.cpp:124] Setting up pool1
I0109 22:55:08.794980 60247 net.cpp:131] Top shape: 100 20 12 12 (288000)
I0109 22:55:08.794981 60247 net.cpp:139] Memory required for data: 6074800
I0109 22:55:08.794986 60247 layer_factory.hpp:77] Creating layer conv2
I0109 22:55:08.794994 60247 net.cpp:86] Creating Layer conv2
I0109 22:55:08.794997 60247 net.cpp:408] conv2 <- pool1
I0109 22:55:08.795001 60247 net.cpp:382] conv2 -> conv2
I0109 22:55:08.795130 60247 net.cpp:124] Setting up conv2
I0109 22:55:08.795150 60247 net.cpp:131] Top shape: 100 50 8 8 (320000)
I0109 22:55:08.795153 60247 net.cpp:139] Memory required for data: 7354800
I0109 22:55:08.795159 60247 layer_factory.hpp:77] Creating layer pool2
I0109 22:55:08.795164 60247 net.cpp:86] Creating Layer pool2
I0109 22:55:08.795166 60247 net.cpp:408] pool2 <- conv2
I0109 22:55:08.795172 60247 net.cpp:382] pool2 -> pool2
I0109 22:55:08.795177 60247 net.cpp:124] Setting up pool2
I0109 22:55:08.795310 60247 net.cpp:131] Top shape: 100 50 4 4 (80000)
I0109 22:55:08.795315 60247 net.cpp:139] Memory required for data: 7674800
I0109 22:55:08.795318 60247 layer_factory.hpp:77] Creating layer ip1
I0109 22:55:08.795323 60247 net.cpp:86] Creating Layer ip1
I0109 22:55:08.795326 60247 net.cpp:408] ip1 <- pool2
I0109 22:55:08.795332 60247 net.cpp:382] ip1 -> ip1
I0109 22:55:08.797287 60247 net.cpp:124] Setting up ip1
I0109 22:55:08.797307 60247 net.cpp:131] Top shape: 100 500 (50000)
I0109 22:55:08.797310 60247 net.cpp:139] Memory required for data: 7874800
I0109 22:55:08.797317 60247 layer_factory.hpp:77] Creating layer relu1
I0109 22:55:08.797341 60247 net.cpp:86] Creating Layer relu1
I0109 22:55:08.797348 60247 net.cpp:408] relu1 <- ip1
I0109 22:55:08.797353 60247 net.cpp:369] relu1 -> ip1 (in-place)
I0109 22:55:08.797359 60247 net.cpp:124] Setting up relu1
I0109 22:55:08.797363 60247 net.cpp:131] Top shape: 100 500 (50000)
I0109 22:55:08.797365 60247 net.cpp:139] Memory required for data: 8074800
I0109 22:55:08.797502 60247 layer_factory.hpp:77] Creating layer ip2
I0109 22:55:08.797510 60247 net.cpp:86] Creating Layer ip2
I0109 22:55:08.797514 60247 net.cpp:408] ip2 <- ip1
I0109 22:55:08.797518 60247 net.cpp:382] ip2 -> ip2
I0109 22:55:08.797549 60247 net.cpp:124] Setting up ip2
I0109 22:55:08.797564 60247 net.cpp:131] Top shape: 100 10 (1000)
I0109 22:55:08.797567 60247 net.cpp:139] Memory required for data: 8078800
I0109 22:55:08.797571 60247 layer_factory.hpp:77] Creating layer ip2_ip2_0_split
I0109 22:55:08.797577 60247 net.cpp:86] Creating Layer ip2_ip2_0_split
I0109 22:55:08.797580 60247 net.cpp:408] ip2_ip2_0_split <- ip2
I0109 22:55:08.797583 60247 net.cpp:382] ip2_ip2_0_split -> ip2_ip2_0_split_0
I0109 22:55:08.797588 60247 net.cpp:382] ip2_ip2_0_split -> ip2_ip2_0_split_1
I0109 22:55:08.797593 60247 net.cpp:124] Setting up ip2_ip2_0_split
I0109 22:55:08.797595 60247 net.cpp:131] Top shape: 100 10 (1000)
I0109 22:55:08.797598 60247 net.cpp:131] Top shape: 100 10 (1000)
I0109 22:55:08.797600 60247 net.cpp:139] Memory required for data: 8086800
I0109 22:55:08.797721 60247 layer_factory.hpp:77] Creating layer accuracy
I0109 22:55:08.797727 60247 net.cpp:86] Creating Layer accuracy
I0109 22:55:08.797731 60247 net.cpp:408] accuracy <- ip2_ip2_0_split_0
I0109 22:55:08.797735 60247 net.cpp:408] accuracy <- label_mnist_1_split_0
I0109 22:55:08.797741 60247 net.cpp:382] accuracy -> accuracy
…
