…
I0109 23:47:44.609246  2162 net.cpp:296] The NetState phase (0) differed from the phase (1) specified by a rule in layer mnist
I0109 23:47:44.609272  2162 net.cpp:296] The NetState phase (0) differed from the phase (1) specified by a rule in layer accuracy
I0109 23:47:44.609365  2162 net.cpp:53] Initializing net from parameters: 
name: "LeNet"
state {
  phase: TRAIN
  level: 0
  stage: ""
}
layer {
  name: "mnist"
  type: "Data"
  top: "data"
  top: "label"
  include {
    phase: TRAIN
  }
  transform_param {
    scale: 0.00390625
    mean_value: 128
  }
  data_param {
    source: "train_aug_lmdb"
    batch_size: 50
    backend: LMDB
  }
}
layer {
  name: "conv1"
  type: "Convolution"
  bottom: "data"
  top: "conv1"
  param {
    lr_mult: 1
  }
  param {
    lr_mult: 2
  }
  convolution_param {
    num_output: 20
    kernel_size: 5
    stride: 1
    weight_filler {
      type: "xavier"
    }
    bias_filler {
      type: "constant"
    }
  }
}
layer {
  name: "pool1"
  type: "Pooling"
  bottom: "conv1"
  top: "pool1"
  pooling_param {
    pool: MAX
    kernel_size: 2
    stride: 2
  }
}
layer {
  name: "conv2"
  type: "Convolution"
  bottom: "pool1"
  top: "conv2"
  param {
    lr_mult: 1
  }
  param {
    lr_mult: 2
  }
  convolution_param {
    num_output: 50
    kernel_size: 5
    stride: 1
    weight_filler {
      type: "xavier"
    }
    bias_filler {
      type: "constant"
    }
  }
}
layer {
  name: "pool2"
  type: "Pooling"
  bottom: "conv2"
  top: "pool2"
  pooling_param {
    pool: MAX
    kernel_size: 2
    stride: 2
  }
}
layer {
  name: "ip1"
  type: "InnerProduct"
  bottom: "pool2"
  top: "ip1"
  param {
    lr_mult: 1
  }
  param {
    lr_mult: 2
  }
  inner_product_param {
    num_output: 500
    weight_filler {
      type: "xavier"
    }
    bias_filler {
      type: "constant"
    }
  }
}
layer {
  name: "relu1"
  type: "ReLU"
  bottom: "ip1"
  top: "ip1"
}
layer {
  name: "ip2"
  type: "InnerProduct"
  bottom: "ip1"
  top: "ip2"
  param {
    lr_mult: 1
  }
  param {
    lr_mult: 2
  }
  inner_product_param {
    num_output: 10
    weight_filler {
      type: "xavier"
    }
    bias_filler {
      type: "constant"
    }
  }
}
layer {
  name: "loss"
  type: "SoftmaxWithLoss"
  bottom: "ip2"
  bottom: "label"
  top: "loss"
}
I0109 23:47:44.609903  2162 layer_factory.hpp:77] Creating layer mnist
I0109 23:47:44.611976  2162 db_lmdb.cpp:35] Opened lmdb train_aug_lmdb
I0109 23:47:44.613054  2162 net.cpp:86] Creating Layer mnist
I0109 23:47:44.613108  2162 net.cpp:382] mnist -> data
I0109 23:47:44.613137  2162 net.cpp:382] mnist -> label
I0109 23:47:44.613576  2162 data_layer.cpp:45] output data size: 50,1,28,28
I0109 23:47:44.613804  2162 net.cpp:124] Setting up mnist
I0109 23:47:44.613827  2162 net.cpp:131] Top shape: 50 1 28 28 (39200)
I0109 23:47:44.613832  2162 net.cpp:131] Top shape: 50 (50)
I0109 23:47:44.613834  2162 net.cpp:139] Memory required for data: 157000
I0109 23:47:44.613840  2162 layer_factory.hpp:77] Creating layer conv1
I0109 23:47:44.613852  2162 net.cpp:86] Creating Layer conv1
I0109 23:47:44.613857  2162 net.cpp:408] conv1 <- data
I0109 23:47:44.613864  2162 net.cpp:382] conv1 -> conv1
I0109 23:47:44.613953  2162 net.cpp:124] Setting up conv1
I0109 23:47:44.613975  2162 net.cpp:131] Top shape: 50 20 24 24 (576000)
I0109 23:47:44.613978  2162 net.cpp:139] Memory required for data: 2461000
I0109 23:47:44.613988  2162 layer_factory.hpp:77] Creating layer pool1
I0109 23:47:44.614017  2162 net.cpp:86] Creating Layer pool1
I0109 23:47:44.614020  2162 net.cpp:408] pool1 <- conv1
I0109 23:47:44.614024  2162 net.cpp:382] pool1 -> pool1
I0109 23:47:44.614473  2162 net.cpp:124] Setting up pool1
I0109 23:47:44.614481  2162 net.cpp:131] Top shape: 50 20 12 12 (144000)
I0109 23:47:44.614485  2162 net.cpp:139] Memory required for data: 3037000
I0109 23:47:44.614504  2162 layer_factory.hpp:77] Creating layer conv2
I0109 23:47:44.614518  2162 net.cpp:86] Creating Layer conv2
I0109 23:47:44.614527  2162 net.cpp:408] conv2 <- pool1
I0109 23:47:44.614540  2162 net.cpp:382] conv2 -> conv2
I0109 23:47:44.614725  2162 net.cpp:124] Setting up conv2
I0109 23:47:44.614744  2162 net.cpp:131] Top shape: 50 50 8 8 (160000)
I0109 23:47:44.614748  2162 net.cpp:139] Memory required for data: 3677000
I0109 23:47:44.614776  2162 layer_factory.hpp:77] Creating layer pool2
I0109 23:47:44.614794  2162 net.cpp:86] Creating Layer pool2
I0109 23:47:44.614809  2162 net.cpp:408] pool2 <- conv2
I0109 23:47:44.614815  2162 net.cpp:382] pool2 -> pool2
I0109 23:47:44.614823  2162 net.cpp:124] Setting up pool2
I0109 23:47:44.614838  2162 net.cpp:131] Top shape: 50 50 4 4 (40000)
I0109 23:47:44.614989  2162 net.cpp:139] Memory required for data: 3837000
I0109 23:47:44.614995  2162 layer_factory.hpp:77] Creating layer ip1
I0109 23:47:44.615000  2162 net.cpp:86] Creating Layer ip1
I0109 23:47:44.615005  2162 net.cpp:408] ip1 <- pool2
I0109 23:47:44.615008  2162 net.cpp:382] ip1 -> ip1
I0109 23:47:44.617477  2162 net.cpp:124] Setting up ip1
I0109 23:47:44.617506  2162 net.cpp:131] Top shape: 50 500 (25000)
I0109 23:47:44.617511  2162 net.cpp:139] Memory required for data: 3937000
I0109 23:47:44.617517  2162 layer_factory.hpp:77] Creating layer relu1
I0109 23:47:44.617522  2162 net.cpp:86] Creating Layer relu1
I0109 23:47:44.617525  2162 net.cpp:408] relu1 <- ip1
I0109 23:47:44.617529  2162 net.cpp:369] relu1 -> ip1 (in-place)
I0109 23:47:44.617534  2162 net.cpp:124] Setting up relu1
I0109 23:47:44.617563  2162 net.cpp:131] Top shape: 50 500 (25000)
I0109 23:47:44.617568  2162 net.cpp:139] Memory required for data: 4037000
I0109 23:47:44.617571  2162 layer_factory.hpp:77] Creating layer ip2
I0109 23:47:44.617913  2162 net.cpp:86] Creating Layer ip2
I0109 23:47:44.617919  2162 net.cpp:408] ip2 <- ip1
I0109 23:47:44.617924  2162 net.cpp:382] ip2 -> ip2
I0109 23:47:44.618001  2162 net.cpp:124] Setting up ip2
I0109 23:47:44.618010  2162 net.cpp:131] Top shape: 50 10 (500)
I0109 23:47:44.618026  2162 net.cpp:139] Memory required for data: 4039000
I0109 23:47:44.618031  2162 layer_factory.hpp:77] Creating layer loss
I0109 23:47:44.618036  2162 net.cpp:86] Creating Layer loss
I0109 23:47:44.618038  2162 net.cpp:408] loss <- ip2
I0109 23:47:44.618041  2162 net.cpp:408] loss <- label
I0109 23:47:44.618046  2162 net.cpp:382] loss -> loss
I0109 23:47:44.618099  2162 layer_factory.hpp:77] Creating layer loss
…
I0109 23:47:44.619498  2162 solver.cpp:190] Creating test net (#0) specified by net file: lenet_train_val_aug.prototxt
I0109 23:47:44.619529  2162 net.cpp:296] The NetState phase (1) differed from the phase (0) specified by a rule in layer mnist
I0109 23:47:44.619930  2162 net.cpp:53] Initializing net from parameters: 
name: "LeNet"
state {
  phase: TEST
}
layer {
  name: "mnist"
  type: "Data"
  top: "data"
  top: "label"
  include {
    phase: TEST
  }
  transform_param {
    scale: 0.00390625
    mean_value: 128
  }
  data_param {
    source: "val_lmdb"
    batch_size: 100
    backend: LMDB
  }
}
layer {
  name: "conv1"
  type: "Convolution"
  bottom: "data"
  top: "conv1"
  param {
    lr_mult: 1
  }
  param {
    lr_mult: 2
  }
  convolution_param {
    num_output: 20
    kernel_size: 5
    stride: 1
    weight_filler {
      type: "xavier"
    }
    bias_filler {
      type: "constant"
    }
  }
}
layer {
  name: "pool1"
  type: "Pooling"
  bottom: "conv1"
  top: "pool1"
  pooling_param {
    pool: MAX
    kernel_size: 2
    stride: 2
  }
}
layer {
  name: "conv2"
  type: "Convolution"
  bottom: "pool1"
  top: "conv2"
  param {
    lr_mult: 1
  }
  param {
    lr_mult: 2
  }
  convolution_param {
    num_output: 50
    kernel_size: 5
    stride: 1
    weight_filler {
      type: "xavier"
    }
    bias_filler {
      type: "constant"
    }
  }
}
layer {
  name: "pool2"
  type: "Pooling"
  bottom: "conv2"
  top: "pool2"
  pooling_param {
    pool: MAX
    kernel_size: 2
    stride: 2
  }
}
layer {
  name: "ip1"
  type: "InnerProduct"
  bottom: "pool2"
  top: "ip1"
  param {
    lr_mult: 1
  }
  param {
    lr_mult: 2
  }
  inner_product_param {
    num_output: 500
    weight_filler {
      type: "xavier"
    }
    bias_filler {
      type: "constant"
    }
  }
}
layer {
  name: "relu1"
  type: "ReLU"
  bottom: "ip1"
  top: "ip1"
}
layer {
  name: "ip2"
  type: "InnerProduct"
  bottom: "ip1"
  top: "ip2"
  param {
    lr_mult: 1
  }
  param {
    lr_mult: 2
  }
  inner_product_param {
    num_output: 10
    weight_filler {
      type: "xavier"
    }
    bias_filler {
      type: "constant"
    }
  }
}
layer {
  name: "accuracy"
  type: "Accuracy"
  bottom: "ip2"
  bottom: "label"
  top: "accuracy"
  include {
    phase: TEST
  }
}
layer {
  name: "loss"
  type: "SoftmaxWithLoss"
  bottom: "ip2"
  bottom: "label"
  top: "loss"
}
I0109 23:47:44.620375  2162 layer_factory.hpp:77] Creating layer mnist
I0109 23:47:44.622766  2162 db_lmdb.cpp:35] Opened lmdb val_lmdb
I0109 23:47:44.623344  2162 net.cpp:86] Creating Layer mnist
I0109 23:47:44.623366  2162 net.cpp:382] mnist -> data
I0109 23:47:44.623375  2162 net.cpp:382] mnist -> label
I0109 23:47:44.623389  2162 data_layer.cpp:45] output data size: 100,1,28,28
I0109 23:47:44.623491  2162 net.cpp:124] Setting up mnist
I0109 23:47:44.623508  2162 net.cpp:131] Top shape: 100 1 28 28 (78400)
I0109 23:47:44.623512  2162 net.cpp:131] Top shape: 100 (100)
I0109 23:47:44.623515  2162 net.cpp:139] Memory required for data: 314000
I0109 23:47:44.623518  2162 layer_factory.hpp:77] Creating layer label_mnist_1_split
I0109 23:47:44.623539  2162 net.cpp:86] Creating Layer label_mnist_1_split
I0109 23:47:44.623558  2162 net.cpp:408] label_mnist_1_split <- label
I0109 23:47:44.623585  2162 net.cpp:382] label_mnist_1_split -> label_mnist_1_split_0
I0109 23:47:44.623911  2162 net.cpp:382] label_mnist_1_split -> label_mnist_1_split_1
I0109 23:47:44.623939  2162 net.cpp:124] Setting up label_mnist_1_split
I0109 23:47:44.623942  2162 net.cpp:131] Top shape: 100 (100)
I0109 23:47:44.623946  2162 net.cpp:131] Top shape: 100 (100)
I0109 23:47:44.623963  2162 net.cpp:139] Memory required for data: 314800
I0109 23:47:44.623970  2162 layer_factory.hpp:77] Creating layer conv1
I0109 23:47:44.623980  2162 net.cpp:86] Creating Layer conv1
I0109 23:47:44.623984  2162 net.cpp:408] conv1 <- data
I0109 23:47:44.623991  2162 net.cpp:382] conv1 -> conv1
I0109 23:47:44.624013  2162 net.cpp:124] Setting up conv1
I0109 23:47:44.624033  2162 net.cpp:131] Top shape: 100 20 24 24 (1152000)
I0109 23:47:44.624039  2162 net.cpp:139] Memory required for data: 4922800
I0109 23:47:44.624109  2162 layer_factory.hpp:77] Creating layer pool1
I0109 23:47:44.624142  2162 net.cpp:86] Creating Layer pool1
I0109 23:47:44.624194  2162 net.cpp:408] pool1 <- conv1
I0109 23:47:44.624439  2162 net.cpp:382] pool1 -> pool1
I0109 23:47:44.624464  2162 net.cpp:124] Setting up pool1
I0109 23:47:44.624475  2162 net.cpp:131] Top shape: 100 20 12 12 (288000)
I0109 23:47:44.624480  2162 net.cpp:139] Memory required for data: 6074800
I0109 23:47:44.624481  2162 layer_factory.hpp:77] Creating layer conv2
I0109 23:47:44.624490  2162 net.cpp:86] Creating Layer conv2
I0109 23:47:44.624505  2162 net.cpp:408] conv2 <- pool1
I0109 23:47:44.624512  2162 net.cpp:382] conv2 -> conv2
I0109 23:47:44.624657  2162 net.cpp:124] Setting up conv2
I0109 23:47:44.624692  2162 net.cpp:131] Top shape: 100 50 8 8 (320000)
I0109 23:47:44.624696  2162 net.cpp:139] Memory required for data: 7354800
I0109 23:47:44.624720  2162 layer_factory.hpp:77] Creating layer pool2
I0109 23:47:44.624740  2162 net.cpp:86] Creating Layer pool2
I0109 23:47:44.624752  2162 net.cpp:408] pool2 <- conv2
I0109 23:47:44.624761  2162 net.cpp:382] pool2 -> pool2
I0109 23:47:44.624773  2162 net.cpp:124] Setting up pool2
I0109 23:47:44.625213  2162 net.cpp:131] Top shape: 100 50 4 4 (80000)
I0109 23:47:44.625250  2162 net.cpp:139] Memory required for data: 7674800
I0109 23:47:44.625270  2162 layer_factory.hpp:77] Creating layer ip1
I0109 23:47:44.625303  2162 net.cpp:86] Creating Layer ip1
I0109 23:47:44.625329  2162 net.cpp:408] ip1 <- pool2
I0109 23:47:44.625375  2162 net.cpp:382] ip1 -> ip1
I0109 23:47:44.627331  2162 net.cpp:124] Setting up ip1
I0109 23:47:44.627357  2162 net.cpp:131] Top shape: 100 500 (50000)
I0109 23:47:44.627360  2162 net.cpp:139] Memory required for data: 7874800
I0109 23:47:44.627369  2162 layer_factory.hpp:77] Creating layer relu1
I0109 23:47:44.627377  2162 net.cpp:86] Creating Layer relu1
I0109 23:47:44.627380  2162 net.cpp:408] relu1 <- ip1
I0109 23:47:44.627385  2162 net.cpp:369] relu1 -> ip1 (in-place)
I0109 23:47:44.627391  2162 net.cpp:124] Setting up relu1
I0109 23:47:44.627419  2162 net.cpp:131] Top shape: 100 500 (50000)
I0109 23:47:44.627432  2162 net.cpp:139] Memory required for data: 8074800
I0109 23:47:44.627629  2162 layer_factory.hpp:77] Creating layer ip2
I0109 23:47:44.627641  2162 net.cpp:86] Creating Layer ip2
I0109 23:47:44.627645  2162 net.cpp:408] ip2 <- ip1
I0109 23:47:44.627650  2162 net.cpp:382] ip2 -> ip2
I0109 23:47:44.627682  2162 net.cpp:124] Setting up ip2
I0109 23:47:44.627698  2162 net.cpp:131] Top shape: 100 10 (1000)
I0109 23:47:44.627702  2162 net.cpp:139] Memory required for data: 8078800
I0109 23:47:44.627708  2162 layer_factory.hpp:77] Creating layer ip2_ip2_0_split
I0109 23:47:44.627714  2162 net.cpp:86] Creating Layer ip2_ip2_0_split
I0109 23:47:44.627717  2162 net.cpp:408] ip2_ip2_0_split <- ip2
I0109 23:47:44.627719  2162 net.cpp:382] ip2_ip2_0_split -> ip2_ip2_0_split_0
I0109 23:47:44.627727  2162 net.cpp:382] ip2_ip2_0_split -> ip2_ip2_0_split_1
I0109 23:47:44.627732  2162 net.cpp:124] Setting up ip2_ip2_0_split
I0109 23:47:44.627760  2162 net.cpp:131] Top shape: 100 10 (1000)
I0109 23:47:44.627774  2162 net.cpp:131] Top shape: 100 10 (1000)
I0109 23:47:44.627779  2162 net.cpp:139] Memory required for data: 8086800
I0109 23:47:44.627959  2162 layer_factory.hpp:77] Creating layer accuracy
I0109 23:47:44.627967  2162 net.cpp:86] Creating Layer accuracy
I0109 23:47:44.627970  2162 net.cpp:408] accuracy <- ip2_ip2_0_split_0
I0109 23:47:44.627985  2162 net.cpp:408] accuracy <- label_mnist_1_split_0
I0109 23:47:44.627995  2162 net.cpp:382] accuracy -> accuracy
…
