…
I0109 19:07:28.931108 59220 net.cpp:296] The NetState phase (0) differed from the phase (1) specified by a rule in layer mnist
I0109 19:07:28.931149 59220 net.cpp:296] The NetState phase (0) differed from the phase (1) specified by a rule in layer accuracy
I0109 19:07:28.931217 59220 net.cpp:53] Initializing net from parameters: 
name: "LeNet"
state {
  phase: TRAIN
  level: 0
  stage: ""
}
layer {
  name: "mnist"
  type: "Data"
  top: "data"
  top: "label"
  include {
    phase: TRAIN
  }
  transform_param {
    scale: 0.00390625
    mean_value: 128
  }
  data_param {
    source: "train_lmdb"
    batch_size: 50
    backend: LMDB
  }
}
layer {
  name: "conv1"
  type: "Convolution"
  bottom: "data"
  top: "conv1"
  param {
    lr_mult: 1
  }
  param {
    lr_mult: 2
  }
  convolution_param {
    num_output: 20
    kernel_size: 5
    stride: 1
    weight_filler {
      type: "xavier"
    }
    bias_filler {
      type: "constant"
    }
  }
}
layer {
  name: "pool1"
  type: "Pooling"
  bottom: "conv1"
  top: "pool1"
  pooling_param {
    pool: MAX
    kernel_size: 2
    stride: 2
  }
}
layer {
  name: "conv2"
  type: "Convolution"
  bottom: "pool1"
  top: "conv2"
  param {
    lr_mult: 1
  }
  param {
    lr_mult: 2
  }
  convolution_param {
    num_output: 50
    kernel_size: 5
    stride: 1
    weight_filler {
      type: "xavier"
    }
    bias_filler {
      type: "constant"
    }
  }
}
layer {
  name: "pool2"
  type: "Pooling"
  bottom: "conv2"
  top: "pool2"
  pooling_param {
    pool: MAX
    kernel_size: 2
    stride: 2
  }
}
layer {
  name: "ip1"
  type: "InnerProduct"
  bottom: "pool2"
  top: "ip1"
  param {
    lr_mult: 1
  }
  param {
    lr_mult: 2
  }
  inner_product_param {
    num_output: 500
    weight_filler {
      type: "xavier"
    }
    bias_filler {
      type: "constant"
    }
  }
}
layer {
  name: "relu1"
  type: "ReLU"
  bottom: "ip1"
  top: "ip1"
}
layer {
  name: "ip2"
  type: "InnerProduct"
  bottom: "ip1"
  top: "ip2"
  param {
    lr_mult: 1
  }
  param {
    lr_mult: 2
  }
  inner_product_param {
    num_output: 10
    weight_filler {
      type: "xavier"
    }
    bias_filler {
      type: "constant"
    }
  }
}
layer {
  name: "loss"
  type: "SoftmaxWithLoss"
  bottom: "ip2"
  bottom: "label"
  top: "loss"
}
I0109 19:07:28.931988 59220 layer_factory.hpp:77] Creating layer mnist
I0109 19:07:28.934623 59220 db_lmdb.cpp:35] Opened lmdb train_lmdb
I0109 19:07:28.935627 59220 net.cpp:86] Creating Layer mnist
I0109 19:07:28.935698 59220 net.cpp:382] mnist -> data
I0109 19:07:28.935760 59220 net.cpp:382] mnist -> label
I0109 19:07:28.935930 59220 data_layer.cpp:45] output data size: 50,1,28,28
I0109 19:07:28.936275 59220 net.cpp:124] Setting up mnist
I0109 19:07:28.936290 59220 net.cpp:131] Top shape: 50 1 28 28 (39200)
I0109 19:07:28.936295 59220 net.cpp:131] Top shape: 50 (50)
I0109 19:07:28.936297 59220 net.cpp:139] Memory required for data: 157000
I0109 19:07:28.936302 59220 layer_factory.hpp:77] Creating layer conv1
I0109 19:07:28.936319 59220 net.cpp:86] Creating Layer conv1
I0109 19:07:28.936336 59220 net.cpp:408] conv1 <- data
I0109 19:07:28.936357 59220 net.cpp:382] conv1 -> conv1
I0109 19:07:28.936480 59220 net.cpp:124] Setting up conv1
I0109 19:07:28.936502 59220 net.cpp:131] Top shape: 50 20 24 24 (576000)
I0109 19:07:28.936517 59220 net.cpp:139] Memory required for data: 2461000
I0109 19:07:28.936529 59220 layer_factory.hpp:77] Creating layer pool1
I0109 19:07:28.936547 59220 net.cpp:86] Creating Layer pool1
I0109 19:07:28.936560 59220 net.cpp:408] pool1 <- conv1
I0109 19:07:28.936576 59220 net.cpp:382] pool1 -> pool1
I0109 19:07:28.936995 59220 net.cpp:124] Setting up pool1
I0109 19:07:28.937013 59220 net.cpp:131] Top shape: 50 20 12 12 (144000)
I0109 19:07:28.937027 59220 net.cpp:139] Memory required for data: 3037000
I0109 19:07:28.937031 59220 layer_factory.hpp:77] Creating layer conv2
I0109 19:07:28.937048 59220 net.cpp:86] Creating Layer conv2
I0109 19:07:28.937062 59220 net.cpp:408] conv2 <- pool1
I0109 19:07:28.937078 59220 net.cpp:382] conv2 -> conv2
I0109 19:07:28.937249 59220 net.cpp:124] Setting up conv2
I0109 19:07:28.937266 59220 net.cpp:131] Top shape: 50 50 8 8 (160000)
I0109 19:07:28.937280 59220 net.cpp:139] Memory required for data: 3677000
I0109 19:07:28.937297 59220 layer_factory.hpp:77] Creating layer pool2
I0109 19:07:28.937314 59220 net.cpp:86] Creating Layer pool2
I0109 19:07:28.937327 59220 net.cpp:408] pool2 <- conv2
I0109 19:07:28.937332 59220 net.cpp:382] pool2 -> pool2
I0109 19:07:28.937348 59220 net.cpp:124] Setting up pool2
I0109 19:07:28.937363 59220 net.cpp:131] Top shape: 50 50 4 4 (40000)
I0109 19:07:28.937804 59220 net.cpp:139] Memory required for data: 3837000
I0109 19:07:28.937817 59220 layer_factory.hpp:77] Creating layer ip1
I0109 19:07:28.937832 59220 net.cpp:86] Creating Layer ip1
I0109 19:07:28.937839 59220 net.cpp:408] ip1 <- pool2
I0109 19:07:28.937847 59220 net.cpp:382] ip1 -> ip1
I0109 19:07:28.940353 59220 net.cpp:124] Setting up ip1
I0109 19:07:28.940374 59220 net.cpp:131] Top shape: 50 500 (25000)
I0109 19:07:28.940377 59220 net.cpp:139] Memory required for data: 3937000
I0109 19:07:28.940384 59220 layer_factory.hpp:77] Creating layer relu1
I0109 19:07:28.940389 59220 net.cpp:86] Creating Layer relu1
I0109 19:07:28.940392 59220 net.cpp:408] relu1 <- ip1
I0109 19:07:28.940397 59220 net.cpp:369] relu1 -> ip1 (in-place)
I0109 19:07:28.940403 59220 net.cpp:124] Setting up relu1
I0109 19:07:28.940407 59220 net.cpp:131] Top shape: 50 500 (25000)
I0109 19:07:28.940408 59220 net.cpp:139] Memory required for data: 4037000
I0109 19:07:28.940412 59220 layer_factory.hpp:77] Creating layer ip2
I0109 19:07:28.940636 59220 net.cpp:86] Creating Layer ip2
I0109 19:07:28.940642 59220 net.cpp:408] ip2 <- ip1
I0109 19:07:28.940647 59220 net.cpp:382] ip2 -> ip2
I0109 19:07:28.940733 59220 net.cpp:124] Setting up ip2
I0109 19:07:28.940757 59220 net.cpp:131] Top shape: 50 10 (500)
I0109 19:07:28.940759 59220 net.cpp:139] Memory required for data: 4039000
I0109 19:07:28.940765 59220 layer_factory.hpp:77] Creating layer loss
I0109 19:07:28.940773 59220 net.cpp:86] Creating Layer loss
I0109 19:07:28.940775 59220 net.cpp:408] loss <- ip2
I0109 19:07:28.940778 59220 net.cpp:408] loss <- label
I0109 19:07:28.940783 59220 net.cpp:382] loss -> loss
I0109 19:07:28.940794 59220 layer_factory.hpp:77] Creating layer loss
…
I0109 19:07:28.941804 59220 solver.cpp:190] Creating test net (#0) specified by net file: lenet_train_val.prototxt
I0109 19:07:28.941828 59220 net.cpp:296] The NetState phase (1) differed from the phase (0) specified by a rule in layer mnist
I0109 19:07:28.941886 59220 net.cpp:53] Initializing net from parameters: 
name: "LeNet"
state {
  phase: TEST
}
layer {
  name: "mnist"
  type: "Data"
  top: "data"
  top: "label"
  include {
    phase: TEST
  }
  transform_param {
    scale: 0.00390625
    mean_value: 128
  }
  data_param {
    source: "val_lmdb"
    batch_size: 100
    backend: LMDB
  }
}
layer {
  name: "conv1"
  type: "Convolution"
  bottom: "data"
  top: "conv1"
  param {
    lr_mult: 1
  }
  param {
    lr_mult: 2
  }
  convolution_param {
    num_output: 20
    kernel_size: 5
    stride: 1
    weight_filler {
      type: "xavier"
    }
    bias_filler {
      type: "constant"
    }
  }
}
layer {
  name: "pool1"
  type: "Pooling"
  bottom: "conv1"
  top: "pool1"
  pooling_param {
    pool: MAX
    kernel_size: 2
    stride: 2
  }
}
layer {
  name: "conv2"
  type: "Convolution"
  bottom: "pool1"
  top: "conv2"
  param {
    lr_mult: 1
  }
  param {
    lr_mult: 2
  }
  convolution_param {
    num_output: 50
    kernel_size: 5
    stride: 1
    weight_filler {
      type: "xavier"
    }
    bias_filler {
      type: "constant"
    }
  }
}
layer {
  name: "pool2"
  type: "Pooling"
  bottom: "conv2"
  top: "pool2"
  pooling_param {
    pool: MAX
    kernel_size: 2
    stride: 2
  }
}
layer {
  name: "ip1"
  type: "InnerProduct"
  bottom: "pool2"
  top: "ip1"
  param {
    lr_mult: 1
  }
  param {
    lr_mult: 2
  }
  inner_product_param {
    num_output: 500
    weight_filler {
      type: "xavier"
    }
    bias_filler {
      type: "constant"
    }
  }
}
layer {
  name: "relu1"
  type: "ReLU"
  bottom: "ip1"
  top: "ip1"
}
layer {
  name: "ip2"
  type: "InnerProduct"
  bottom: "ip1"
  top: "ip2"
  param {
    lr_mult: 1
  }
  param {
    lr_mult: 2
  }
  inner_product_param {
    num_output: 10
    weight_filler {
      type: "xavier"
    }
    bias_filler {
      type: "constant"
    }
  }
}
layer {
  name: "accuracy"
  type: "Accuracy"
  bottom: "ip2"
  bottom: "label"
  top: "accuracy"
  include {
    phase: TEST
  }
}
layer {
  name: "loss"
  type: "SoftmaxWithLoss"
  bottom: "ip2"
  bottom: "label"
  top: "loss"
}
I0109 19:07:28.942324 59220 layer_factory.hpp:77] Creating layer mnist
I0109 19:07:28.944669 59220 db_lmdb.cpp:35] Opened lmdb val_lmdb
I0109 19:07:28.945127 59220 net.cpp:86] Creating Layer mnist
I0109 19:07:28.945138 59220 net.cpp:382] mnist -> data
I0109 19:07:28.945145 59220 net.cpp:382] mnist -> label
I0109 19:07:28.945155 59220 data_layer.cpp:45] output data size: 100,1,28,28
I0109 19:07:28.945211 59220 net.cpp:124] Setting up mnist
I0109 19:07:28.945262 59220 net.cpp:131] Top shape: 100 1 28 28 (78400)
I0109 19:07:28.945299 59220 net.cpp:131] Top shape: 100 (100)
I0109 19:07:28.945335 59220 net.cpp:139] Memory required for data: 314000
I0109 19:07:28.945371 59220 layer_factory.hpp:77] Creating layer label_mnist_1_split
I0109 19:07:28.945453 59220 net.cpp:86] Creating Layer label_mnist_1_split
I0109 19:07:28.945493 59220 net.cpp:408] label_mnist_1_split <- label
I0109 19:07:28.945531 59220 net.cpp:382] label_mnist_1_split -> label_mnist_1_split_0
I0109 19:07:28.946079 59220 net.cpp:382] label_mnist_1_split -> label_mnist_1_split_1
I0109 19:07:28.946126 59220 net.cpp:124] Setting up label_mnist_1_split
I0109 19:07:28.946164 59220 net.cpp:131] Top shape: 100 (100)
I0109 19:07:28.946200 59220 net.cpp:131] Top shape: 100 (100)
I0109 19:07:28.946235 59220 net.cpp:139] Memory required for data: 314800
I0109 19:07:28.946270 59220 layer_factory.hpp:77] Creating layer conv1
I0109 19:07:28.946312 59220 net.cpp:86] Creating Layer conv1
I0109 19:07:28.946349 59220 net.cpp:408] conv1 <- data
I0109 19:07:28.946388 59220 net.cpp:382] conv1 -> conv1
I0109 19:07:28.946506 59220 net.cpp:124] Setting up conv1
I0109 19:07:28.946574 59220 net.cpp:131] Top shape: 100 20 24 24 (1152000)
I0109 19:07:28.946617 59220 net.cpp:139] Memory required for data: 4922800
I0109 19:07:28.946630 59220 layer_factory.hpp:77] Creating layer pool1
I0109 19:07:28.946655 59220 net.cpp:86] Creating Layer pool1
I0109 19:07:28.946660 59220 net.cpp:408] pool1 <- conv1
I0109 19:07:28.946667 59220 net.cpp:382] pool1 -> pool1
I0109 19:07:28.947978 59220 net.cpp:124] Setting up pool1
I0109 19:07:28.947989 59220 net.cpp:131] Top shape: 100 20 12 12 (288000)
I0109 19:07:28.947991 59220 net.cpp:139] Memory required for data: 6074800
I0109 19:07:28.947994 59220 layer_factory.hpp:77] Creating layer conv2
I0109 19:07:28.948004 59220 net.cpp:86] Creating Layer conv2
I0109 19:07:28.948019 59220 net.cpp:408] conv2 <- pool1
I0109 19:07:28.948027 59220 net.cpp:382] conv2 -> conv2
I0109 19:07:28.948156 59220 net.cpp:124] Setting up conv2
I0109 19:07:28.948179 59220 net.cpp:131] Top shape: 100 50 8 8 (320000)
I0109 19:07:28.948181 59220 net.cpp:139] Memory required for data: 7354800
I0109 19:07:28.948189 59220 layer_factory.hpp:77] Creating layer pool2
I0109 19:07:28.948192 59220 net.cpp:86] Creating Layer pool2
I0109 19:07:28.948195 59220 net.cpp:408] pool2 <- conv2
I0109 19:07:28.948202 59220 net.cpp:382] pool2 -> pool2
I0109 19:07:28.948210 59220 net.cpp:124] Setting up pool2
I0109 19:07:28.948213 59220 net.cpp:131] Top shape: 100 50 4 4 (80000)
I0109 19:07:28.948380 59220 net.cpp:139] Memory required for data: 7674800
I0109 19:07:28.948413 59220 layer_factory.hpp:77] Creating layer ip1
I0109 19:07:28.948429 59220 net.cpp:86] Creating Layer ip1
I0109 19:07:28.948463 59220 net.cpp:408] ip1 <- pool2
I0109 19:07:28.948472 59220 net.cpp:382] ip1 -> ip1
I0109 19:07:28.950474 59220 net.cpp:124] Setting up ip1
I0109 19:07:28.950497 59220 net.cpp:131] Top shape: 100 500 (50000)
I0109 19:07:28.950500 59220 net.cpp:139] Memory required for data: 7874800
I0109 19:07:28.950508 59220 layer_factory.hpp:77] Creating layer relu1
I0109 19:07:28.950515 59220 net.cpp:86] Creating Layer relu1
I0109 19:07:28.950518 59220 net.cpp:408] relu1 <- ip1
I0109 19:07:28.950522 59220 net.cpp:369] relu1 -> ip1 (in-place)
I0109 19:07:28.950527 59220 net.cpp:124] Setting up relu1
I0109 19:07:28.950529 59220 net.cpp:131] Top shape: 100 500 (50000)
I0109 19:07:28.950534 59220 net.cpp:139] Memory required for data: 8074800
I0109 19:07:28.950536 59220 layer_factory.hpp:77] Creating layer ip2
I0109 19:07:28.950661 59220 net.cpp:86] Creating Layer ip2
I0109 19:07:28.950666 59220 net.cpp:408] ip2 <- ip1
I0109 19:07:28.950670 59220 net.cpp:382] ip2 -> ip2
I0109 19:07:28.950702 59220 net.cpp:124] Setting up ip2
I0109 19:07:28.950718 59220 net.cpp:131] Top shape: 100 10 (1000)
I0109 19:07:28.950721 59220 net.cpp:139] Memory required for data: 8078800
I0109 19:07:28.950726 59220 layer_factory.hpp:77] Creating layer ip2_ip2_0_split
I0109 19:07:28.950731 59220 net.cpp:86] Creating Layer ip2_ip2_0_split
I0109 19:07:28.950733 59220 net.cpp:408] ip2_ip2_0_split <- ip2
I0109 19:07:28.950736 59220 net.cpp:382] ip2_ip2_0_split -> ip2_ip2_0_split_0
I0109 19:07:28.950740 59220 net.cpp:382] ip2_ip2_0_split -> ip2_ip2_0_split_1
I0109 19:07:28.950745 59220 net.cpp:124] Setting up ip2_ip2_0_split
I0109 19:07:28.950748 59220 net.cpp:131] Top shape: 100 10 (1000)
I0109 19:07:28.950752 59220 net.cpp:131] Top shape: 100 10 (1000)
I0109 19:07:28.950755 59220 net.cpp:139] Memory required for data: 8086800
I0109 19:07:28.950853 59220 layer_factory.hpp:77] Creating layer accuracy
I0109 19:07:28.950881 59220 net.cpp:86] Creating Layer accuracy
I0109 19:07:28.950887 59220 net.cpp:408] accuracy <- ip2_ip2_0_split_0
I0109 19:07:28.950893 59220 net.cpp:408] accuracy <- label_mnist_1_split_0
I0109 19:07:28.950899 59220 net.cpp:382] accuracy -> accuracy
…
